<?xml version="1.0" ?>
<net name="hybridnets_512x640" version="10">
	<layers>
		<layer id="0" name="input" type="Parameter" version="opset1">
			<data shape="1, 3, 512, 640" element_type="f32"/>
			<output>
				<port id="0" precision="FP32" names="input">
					<dim>1</dim>
					<dim>3</dim>
					<dim>512</dim>
					<dim>640</dim>
				</port>
			</output>
		</layer>
		<layer id="1" name="20013" type="Const" version="opset1">
			<data element_type="f32" shape="40, 3, 3, 3" offset="0" size="4320"/>
			<output>
				<port id="0" precision="FP32" names="20013">
					<dim>40</dim>
					<dim>3</dim>
					<dim>3</dim>
					<dim>3</dim>
				</port>
			</output>
		</layer>
		<layer id="2" name="Conv_15/WithoutBiases" type="Convolution" version="opset1">
			<data strides="2, 2" dilations="1, 1" pads_begin="0, 0" pads_end="1, 1" auto_pad="explicit"/>
			<input>
				<port id="0" precision="FP32">
					<dim>1</dim>
					<dim>3</dim>
					<dim>512</dim>
					<dim>640</dim>
				</port>
				<port id="1" precision="FP32">
					<dim>40</dim>
					<dim>3</dim>
					<dim>3</dim>
					<dim>3</dim>
				</port>
			</input>
			<output>
				<port id="2" precision="FP32">
					<dim>1</dim>
					<dim>40</dim>
					<dim>256</dim>
					<dim>320</dim>
				</port>
			</output>
		</layer>
		<layer id="3" name="Conv_15/Dims21050" type="Const" version="opset1">
			<data element_type="f32" shape="1, 40, 1, 1" offset="4320" size="160"/>
			<output>
				<port id="0" precision="FP32">
					<dim>1</dim>
					<dim>40</dim>
					<dim>1</dim>
					<dim>1</dim>
				</port>
			</output>
		</layer>
		<layer id="4" name="Conv_15" type="Add" version="opset1">
			<data auto_broadcast="numpy"/>
			<input>
				<port id="0" precision="FP32">
					<dim>1</dim>
					<dim>40</dim>
					<dim>256</dim>
					<dim>320</dim>
				</port>
				<port id="1" precision="FP32">
					<dim>1</dim>
					<dim>40</dim>
					<dim>1</dim>
					<dim>1</dim>
				</port>
			</input>
			<output>
				<port id="2" precision="FP32" names="20012">
					<dim>1</dim>
					<dim>40</dim>
					<dim>256</dim>
					<dim>320</dim>
				</port>
			</output>
		</layer>
		<layer id="5" name="Mul_17" type="Swish" version="opset4">
			<input>
				<port id="0" precision="FP32">
					<dim>1</dim>
					<dim>40</dim>
					<dim>256</dim>
					<dim>320</dim>
				</port>
			</input>
			<output>
				<port id="1" precision="FP32" names="1530">
					<dim>1</dim>
					<dim>40</dim>
					<dim>256</dim>
					<dim>320</dim>
				</port>
			</output>
		</layer>
		<layer id="6" name="20016" type="Const" version="opset1">
			<data element_type="f32" shape="40, 1, 1, 3, 3" offset="4480" size="1440"/>
			<output>
				<port id="0" precision="FP32" names="20016">
					<dim>40</dim>
					<dim>1</dim>
					<dim>1</dim>
					<dim>3</dim>
					<dim>3</dim>
				</port>
			</output>
		</layer>
		<layer id="7" name="Conv_33/WithoutBiases" type="GroupConvolution" version="opset1">
			<data strides="1, 1" pads_begin="1, 1" pads_end="1, 1" dilations="1, 1" auto_pad="explicit"/>
			<input>
				<port id="0" precision="FP32">
					<dim>1</dim>
					<dim>40</dim>
					<dim>256</dim>
					<dim>320</dim>
				</port>
				<port id="1" precision="FP32">
					<dim>40</dim>
					<dim>1</dim>
					<dim>1</dim>
					<dim>3</dim>
					<dim>3</dim>
				</port>
			</input>
			<output>
				<port id="2" precision="FP32">
					<dim>1</dim>
					<dim>40</dim>
					<dim>256</dim>
					<dim>320</dim>
				</port>
			</output>
		</layer>
		<layer id="8" name="Conv_33/Dims21368" type="Const" version="opset1">
			<data element_type="f32" shape="1, 40, 1, 1" offset="5920" size="160"/>
			<output>
				<port id="0" precision="FP32">
					<dim>1</dim>
					<dim>40</dim>
					<dim>1</dim>
					<dim>1</dim>
				</port>
			</output>
		</layer>
		<layer id="9" name="Conv_33" type="Add" version="opset1">
			<data auto_broadcast="numpy"/>
			<input>
				<port id="0" precision="FP32">
					<dim>1</dim>
					<dim>40</dim>
					<dim>256</dim>
					<dim>320</dim>
				</port>
				<port id="1" precision="FP32">
					<dim>1</dim>
					<dim>40</dim>
					<dim>1</dim>
					<dim>1</dim>
				</port>
			</input>
			<output>
				<port id="2" precision="FP32" names="20015">
					<dim>1</dim>
					<dim>40</dim>
					<dim>256</dim>
					<dim>320</dim>
				</port>
			</output>
		</layer>
		<layer id="10" name="Mul_35" type="Swish" version="opset4">
			<input>
				<port id="0" precision="FP32">
					<dim>1</dim>
					<dim>40</dim>
					<dim>256</dim>
					<dim>320</dim>
				</port>
			</input>
			<output>
				<port id="1" precision="FP32" names="1558">
					<dim>1</dim>
					<dim>40</dim>
					<dim>256</dim>
					<dim>320</dim>
				</port>
			</output>
		</layer>
		<layer id="11" name="2458" type="Const" version="opset1">
			<data element_type="i64" shape="" offset="6080" size="8"/>
			<output>
				<port id="0" precision="I64"/>
			</output>
		</layer>
		<layer id="12" name="GlobalAveragePool_36/input_rank/shape_of" type="ShapeOf" version="opset3">
			<data output_type="i64"/>
			<input>
				<port id="0" precision="FP32">
					<dim>1</dim>
					<dim>40</dim>
					<dim>256</dim>
					<dim>320</dim>
				</port>
			</input>
			<output>
				<port id="1" precision="I64">
					<dim>4</dim>
				</port>
			</output>
		</layer>
		<layer id="13" name="GlobalAveragePool_36/input_rank/rank_of" type="ShapeOf" version="opset3">
			<data output_type="i64"/>
			<input>
				<port id="0" precision="I64">
					<dim>4</dim>
				</port>
			</input>
			<output>
				<port id="1" precision="I64">
					<dim>1</dim>
				</port>
			</output>
		</layer>
		<layer id="14" name="GlobalAveragePool_36/input_rank/0d_rank_of/value" type="Const" version="opset1">
			<data element_type="i64" shape="1" offset="6088" size="8"/>
			<output>
				<port id="0" precision="I64">
					<dim>1</dim>
				</port>
			</output>
		</layer>
		<layer id="15" name="GlobalAveragePool_36/input_rank" type="Squeeze" version="opset1">
			<input>
				<port id="0" precision="I64">
					<dim>1</dim>
				</port>
				<port id="1" precision="I64">
					<dim>1</dim>
				</port>
			</input>
			<output>
				<port id="2" precision="I64"/>
			</output>
		</layer>
		<layer id="16" name="2460" type="Const" version="opset1">
			<data element_type="i64" shape="" offset="6096" size="8"/>
			<output>
				<port id="0" precision="I64"/>
			</output>
		</layer>
		<layer id="17" name="GlobalAveragePool_36/global_pooling_reduce_axis" type="Range" version="opset4">
			<data output_type="i64"/>
			<input>
				<port id="0" precision="I64"/>
				<port id="1" precision="I64"/>
				<port id="2" precision="I64"/>
			</input>
			<output>
				<port id="3" precision="I64">
					<dim>2</dim>
				</port>
			</output>
		</layer>
		<layer id="18" name="GlobalAveragePool_36/reduce" type="ReduceMean" version="opset1">
			<data keep_dims="true"/>
			<input>
				<port id="0" precision="FP32">
					<dim>1</dim>
					<dim>40</dim>
					<dim>256</dim>
					<dim>320</dim>
				</port>
				<port id="1" precision="I64">
					<dim>2</dim>
				</port>
			</input>
			<output>
				<port id="2" precision="FP32" names="1559">
					<dim>1</dim>
					<dim>40</dim>
					<dim>1</dim>
					<dim>1</dim>
				</port>
			</output>
		</layer>
		<layer id="19" name="encoder._blocks.0._se_reduce.weight" type="Const" version="opset1">
			<data element_type="f32" shape="10, 40, 1, 1" offset="6104" size="1600"/>
			<output>
				<port id="0" precision="FP32" names="encoder._blocks.0._se_reduce.weight">
					<dim>10</dim>
					<dim>40</dim>
					<dim>1</dim>
					<dim>1</dim>
				</port>
			</output>
		</layer>
		<layer id="20" name="Conv_37/WithoutBiases" type="Convolution" version="opset1">
			<data strides="1, 1" dilations="1, 1" pads_begin="0, 0" pads_end="0, 0" auto_pad="explicit"/>
			<input>
				<port id="0" precision="FP32">
					<dim>1</dim>
					<dim>40</dim>
					<dim>1</dim>
					<dim>1</dim>
				</port>
				<port id="1" precision="FP32">
					<dim>10</dim>
					<dim>40</dim>
					<dim>1</dim>
					<dim>1</dim>
				</port>
			</input>
			<output>
				<port id="2" precision="FP32">
					<dim>1</dim>
					<dim>10</dim>
					<dim>1</dim>
					<dim>1</dim>
				</port>
			</output>
		</layer>
		<layer id="21" name="Conv_37/Dims22496" type="Const" version="opset1">
			<data element_type="f32" shape="1, 10, 1, 1" offset="7704" size="40"/>
			<output>
				<port id="0" precision="FP32">
					<dim>1</dim>
					<dim>10</dim>
					<dim>1</dim>
					<dim>1</dim>
				</port>
			</output>
		</layer>
		<layer id="22" name="Conv_37" type="Add" version="opset1">
			<data auto_broadcast="numpy"/>
			<input>
				<port id="0" precision="FP32">
					<dim>1</dim>
					<dim>10</dim>
					<dim>1</dim>
					<dim>1</dim>
				</port>
				<port id="1" precision="FP32">
					<dim>1</dim>
					<dim>10</dim>
					<dim>1</dim>
					<dim>1</dim>
				</port>
			</input>
			<output>
				<port id="2" precision="FP32" names="1560">
					<dim>1</dim>
					<dim>10</dim>
					<dim>1</dim>
					<dim>1</dim>
				</port>
			</output>
		</layer>
		<layer id="23" name="Mul_39" type="Swish" version="opset4">
			<input>
				<port id="0" precision="FP32">
					<dim>1</dim>
					<dim>10</dim>
					<dim>1</dim>
					<dim>1</dim>
				</port>
			</input>
			<output>
				<port id="1" precision="FP32" names="1562">
					<dim>1</dim>
					<dim>10</dim>
					<dim>1</dim>
					<dim>1</dim>
				</port>
			</output>
		</layer>
		<layer id="24" name="encoder._blocks.0._se_expand.weight" type="Const" version="opset1">
			<data element_type="f32" shape="40, 10, 1, 1" offset="7744" size="1600"/>
			<output>
				<port id="0" precision="FP32" names="encoder._blocks.0._se_expand.weight">
					<dim>40</dim>
					<dim>10</dim>
					<dim>1</dim>
					<dim>1</dim>
				</port>
			</output>
		</layer>
		<layer id="25" name="Conv_40/WithoutBiases" type="Convolution" version="opset1">
			<data strides="1, 1" dilations="1, 1" pads_begin="0, 0" pads_end="0, 0" auto_pad="explicit"/>
			<input>
				<port id="0" precision="FP32">
					<dim>1</dim>
					<dim>10</dim>
					<dim>1</dim>
					<dim>1</dim>
				</port>
				<port id="1" precision="FP32">
					<dim>40</dim>
					<dim>10</dim>
					<dim>1</dim>
					<dim>1</dim>
				</port>
			</input>
			<output>
				<port id="2" precision="FP32">
					<dim>1</dim>
					<dim>40</dim>
					<dim>1</dim>
					<dim>1</dim>
				</port>
			</output>
		</layer>
		<layer id="26" name="Conv_40/Dims21542" type="Const" version="opset1">
			<data element_type="f32" shape="1, 40, 1, 1" offset="9344" size="160"/>
			<output>
				<port id="0" precision="FP32">
					<dim>1</dim>
					<dim>40</dim>
					<dim>1</dim>
					<dim>1</dim>
				</port>
			</output>
		</layer>
		<layer id="27" name="Conv_40" type="Add" version="opset1">
			<data auto_broadcast="numpy"/>
			<input>
				<port id="0" precision="FP32">
					<dim>1</dim>
					<dim>40</dim>
					<dim>1</dim>
					<dim>1</dim>
				</port>
				<port id="1" precision="FP32">
					<dim>1</dim>
					<dim>40</dim>
					<dim>1</dim>
					<dim>1</dim>
				</port>
			</input>
			<output>
				<port id="2" precision="FP32" names="1563">
					<dim>1</dim>
					<dim>40</dim>
					<dim>1</dim>
					<dim>1</dim>
				</port>
			</output>
		</layer>
		<layer id="28" name="Sigmoid_41" type="Sigmoid" version="opset1">
			<input>
				<port id="0" precision="FP32">
					<dim>1</dim>
					<dim>40</dim>
					<dim>1</dim>
					<dim>1</dim>
				</port>
			</input>
			<output>
				<port id="1" precision="FP32" names="1564">
					<dim>1</dim>
					<dim>40</dim>
					<dim>1</dim>
					<dim>1</dim>
				</port>
			</output>
		</layer>
		<layer id="29" name="Mul_42" type="Multiply" version="opset1">
			<data auto_broadcast="numpy"/>
			<input>
				<port id="0" precision="FP32">
					<dim>1</dim>
					<dim>40</dim>
					<dim>1</dim>
					<dim>1</dim>
				</port>
				<port id="1" precision="FP32">
					<dim>1</dim>
					<dim>40</dim>
					<dim>256</dim>
					<dim>320</dim>
				</port>
			</input>
			<output>
				<port id="2" precision="FP32" names="1565">
					<dim>1</dim>
					<dim>40</dim>
					<dim>256</dim>
					<dim>320</dim>
				</port>
			</output>
		</layer>
		<layer id="30" name="20019" type="Const" version="opset1">
			<data element_type="f32" shape="24, 40, 1, 1" offset="9504" size="3840"/>
			<output>
				<port id="0" precision="FP32" names="20019">
					<dim>24</dim>
					<dim>40</dim>
					<dim>1</dim>
					<dim>1</dim>
				</port>
			</output>
		</layer>
		<layer id="31" name="Conv_43/WithoutBiases" type="Convolution" version="opset1">
			<data strides="1, 1" dilations="1, 1" pads_begin="0, 0" pads_end="0, 0" auto_pad="explicit"/>
			<input>
				<port id="0" precision="FP32">
					<dim>1</dim>
					<dim>40</dim>
					<dim>256</dim>
					<dim>320</dim>
				</port>
				<port id="1" precision="FP32">
					<dim>24</dim>
					<dim>40</dim>
					<dim>1</dim>
					<dim>1</dim>
				</port>
			</input>
			<output>
				<port id="2" precision="FP32">
					<dim>1</dim>
					<dim>24</dim>
					<dim>256</dim>
					<dim>320</dim>
				</port>
			</output>
		</layer>
		<layer id="32" name="Conv_43/Dims22082" type="Const" version="opset1">
			<data element_type="f32" shape="1, 24, 1, 1" offset="13344" size="96"/>
			<output>
				<port id="0" precision="FP32">
					<dim>1</dim>
					<dim>24</dim>
					<dim>1</dim>
					<dim>1</dim>
				</port>
			</output>
		</layer>
		<layer id="33" name="Conv_43" type="Add" version="opset1">
			<data auto_broadcast="numpy"/>
			<input>
				<port id="0" precision="FP32">
					<dim>1</dim>
					<dim>24</dim>
					<dim>256</dim>
					<dim>320</dim>
				</port>
				<port id="1" precision="FP32">
					<dim>1</dim>
					<dim>24</dim>
					<dim>1</dim>
					<dim>1</dim>
				</port>
			</input>
			<output>
				<port id="2" precision="FP32" names="20018">
					<dim>1</dim>
					<dim>24</dim>
					<dim>256</dim>
					<dim>320</dim>
				</port>
			</output>
		</layer>
		<layer id="34" name="20022" type="Const" version="opset1">
			<data element_type="f32" shape="24, 1, 1, 3, 3" offset="13440" size="864"/>
			<output>
				<port id="0" precision="FP32" names="20022">
					<dim>24</dim>
					<dim>1</dim>
					<dim>1</dim>
					<dim>3</dim>
					<dim>3</dim>
				</port>
			</output>
		</layer>
		<layer id="35" name="Conv_59/WithoutBiases" type="GroupConvolution" version="opset1">
			<data strides="1, 1" pads_begin="1, 1" pads_end="1, 1" dilations="1, 1" auto_pad="explicit"/>
			<input>
				<port id="0" precision="FP32">
					<dim>1</dim>
					<dim>24</dim>
					<dim>256</dim>
					<dim>320</dim>
				</port>
				<port id="1" precision="FP32">
					<dim>24</dim>
					<dim>1</dim>
					<dim>1</dim>
					<dim>3</dim>
					<dim>3</dim>
				</port>
			</input>
			<output>
				<port id="2" precision="FP32">
					<dim>1</dim>
					<dim>24</dim>
					<dim>256</dim>
					<dim>320</dim>
				</port>
			</output>
		</layer>
		<layer id="36" name="Conv_59/Dims21386" type="Const" version="opset1">
			<data element_type="f32" shape="1, 24, 1, 1" offset="14304" size="96"/>
			<output>
				<port id="0" precision="FP32">
					<dim>1</dim>
					<dim>24</dim>
					<dim>1</dim>
					<dim>1</dim>
				</port>
			</output>
		</layer>
		<layer id="37" name="Conv_59" type="Add" version="opset1">
			<data auto_broadcast="numpy"/>
			<input>
				<port id="0" precision="FP32">
					<dim>1</dim>
					<dim>24</dim>
					<dim>256</dim>
					<dim>320</dim>
				</port>
				<port id="1" precision="FP32">
					<dim>1</dim>
					<dim>24</dim>
					<dim>1</dim>
					<dim>1</dim>
				</port>
			</input>
			<output>
				<port id="2" precision="FP32" names="20021">
					<dim>1</dim>
					<dim>24</dim>
					<dim>256</dim>
					<dim>320</dim>
				</port>
			</output>
		</layer>
		<layer id="38" name="Mul_61" type="Swish" version="opset4">
			<input>
				<port id="0" precision="FP32">
					<dim>1</dim>
					<dim>24</dim>
					<dim>256</dim>
					<dim>320</dim>
				</port>
			</input>
			<output>
				<port id="1" precision="FP32" names="1595">
					<dim>1</dim>
					<dim>24</dim>
					<dim>256</dim>
					<dim>320</dim>
				</port>
			</output>
		</layer>
		<layer id="39" name="2463" type="Const" version="opset1">
			<data element_type="i64" shape="" offset="6080" size="8"/>
			<output>
				<port id="0" precision="I64"/>
			</output>
		</layer>
		<layer id="40" name="GlobalAveragePool_62/input_rank/shape_of" type="ShapeOf" version="opset3">
			<data output_type="i64"/>
			<input>
				<port id="0" precision="FP32">
					<dim>1</dim>
					<dim>24</dim>
					<dim>256</dim>
					<dim>320</dim>
				</port>
			</input>
			<output>
				<port id="1" precision="I64">
					<dim>4</dim>
				</port>
			</output>
		</layer>
		<layer id="41" name="GlobalAveragePool_62/input_rank/rank_of" type="ShapeOf" version="opset3">
			<data output_type="i64"/>
			<input>
				<port id="0" precision="I64">
					<dim>4</dim>
				</port>
			</input>
			<output>
				<port id="1" precision="I64">
					<dim>1</dim>
				</port>
			</output>
		</layer>
		<layer id="42" name="GlobalAveragePool_62/input_rank/0d_rank_of/value" type="Const" version="opset1">
			<data element_type="i64" shape="1" offset="6088" size="8"/>
			<output>
				<port id="0" precision="I64">
					<dim>1</dim>
				</port>
			</output>
		</layer>
		<layer id="43" name="GlobalAveragePool_62/input_rank" type="Squeeze" version="opset1">
			<input>
				<port id="0" precision="I64">
					<dim>1</dim>
				</port>
				<port id="1" precision="I64">
					<dim>1</dim>
				</port>
			</input>
			<output>
				<port id="2" precision="I64"/>
			</output>
		</layer>
		<layer id="44" name="2465" type="Const" version="opset1">
			<data element_type="i64" shape="" offset="6096" size="8"/>
			<output>
				<port id="0" precision="I64"/>
			</output>
		</layer>
		<layer id="45" name="GlobalAveragePool_62/global_pooling_reduce_axis" type="Range" version="opset4">
			<data output_type="i64"/>
			<input>
				<port id="0" precision="I64"/>
				<port id="1" precision="I64"/>
				<port id="2" precision="I64"/>
			</input>
			<output>
				<port id="3" precision="I64">
					<dim>2</dim>
				</port>
			</output>
		</layer>
		<layer id="46" name="GlobalAveragePool_62/reduce" type="ReduceMean" version="opset1">
			<data keep_dims="true"/>
			<input>
				<port id="0" precision="FP32">
					<dim>1</dim>
					<dim>24</dim>
					<dim>256</dim>
					<dim>320</dim>
				</port>
				<port id="1" precision="I64">
					<dim>2</dim>
				</port>
			</input>
			<output>
				<port id="2" precision="FP32" names="1596">
					<dim>1</dim>
					<dim>24</dim>
					<dim>1</dim>
					<dim>1</dim>
				</port>
			</output>
		</layer>
		<layer id="47" name="encoder._blocks.1._se_reduce.weight" type="Const" version="opset1">
			<data element_type="f32" shape="6, 24, 1, 1" offset="14400" size="576"/>
			<output>
				<port id="0" precision="FP32" names="encoder._blocks.1._se_reduce.weight">
					<dim>6</dim>
					<dim>24</dim>
					<dim>1</dim>
					<dim>1</dim>
				</port>
			</output>
		</layer>
		<layer id="48" name="Conv_63/WithoutBiases" type="Convolution" version="opset1">
			<data strides="1, 1" dilations="1, 1" pads_begin="0, 0" pads_end="0, 0" auto_pad="explicit"/>
			<input>
				<port id="0" precision="FP32">
					<dim>1</dim>
					<dim>24</dim>
					<dim>1</dim>
					<dim>1</dim>
				</port>
				<port id="1" precision="FP32">
					<dim>6</dim>
					<dim>24</dim>
					<dim>1</dim>
					<dim>1</dim>
				</port>
			</input>
			<output>
				<port id="2" precision="FP32">
					<dim>1</dim>
					<dim>6</dim>
					<dim>1</dim>
					<dim>1</dim>
				</port>
			</output>
		</layer>
		<layer id="49" name="Conv_63/Dims21290" type="Const" version="opset1">
			<data element_type="f32" shape="1, 6, 1, 1" offset="14976" size="24"/>
			<output>
				<port id="0" precision="FP32">
					<dim>1</dim>
					<dim>6</dim>
					<dim>1</dim>
					<dim>1</dim>
				</port>
			</output>
		</layer>
		<layer id="50" name="Conv_63" type="Add" version="opset1">
			<data auto_broadcast="numpy"/>
			<input>
				<port id="0" precision="FP32">
					<dim>1</dim>
					<dim>6</dim>
					<dim>1</dim>
					<dim>1</dim>
				</port>
				<port id="1" precision="FP32">
					<dim>1</dim>
					<dim>6</dim>
					<dim>1</dim>
					<dim>1</dim>
				</port>
			</input>
			<output>
				<port id="2" precision="FP32" names="1597">
					<dim>1</dim>
					<dim>6</dim>
					<dim>1</dim>
					<dim>1</dim>
				</port>
			</output>
		</layer>
		<layer id="51" name="Mul_65" type="Swish" version="opset4">
			<input>
				<port id="0" precision="FP32">
					<dim>1</dim>
					<dim>6</dim>
					<dim>1</dim>
					<dim>1</dim>
				</port>
			</input>
			<output>
				<port id="1" precision="FP32" names="1599">
					<dim>1</dim>
					<dim>6</dim>
					<dim>1</dim>
					<dim>1</dim>
				</port>
			</output>
		</layer>
		<layer id="52" name="encoder._blocks.1._se_expand.weight" type="Const" version="opset1">
			<data element_type="f32" shape="24, 6, 1, 1" offset="15000" size="576"/>
			<output>
				<port id="0" precision="FP32" names="encoder._blocks.1._se_expand.weight">
					<dim>24</dim>
					<dim>6</dim>
					<dim>1</dim>
					<dim>1</dim>
				</port>
			</output>
		</layer>
		<layer id="53" name="Conv_66/WithoutBiases" type="Convolution" version="opset1">
			<data strides="1, 1" dilations="1, 1" pads_begin="0, 0" pads_end="0, 0" auto_pad="explicit"/>
			<input>
				<port id="0" precision="FP32">
					<dim>1</dim>
					<dim>6</dim>
					<dim>1</dim>
					<dim>1</dim>
				</port>
				<port id="1" precision="FP32">
					<dim>24</dim>
					<dim>6</dim>
					<dim>1</dim>
					<dim>1</dim>
				</port>
			</input>
			<output>
				<port id="2" precision="FP32">
					<dim>1</dim>
					<dim>24</dim>
					<dim>1</dim>
					<dim>1</dim>
				</port>
			</output>
		</layer>
		<layer id="54" name="Conv_66/Dims22220" type="Const" version="opset1">
			<data element_type="f32" shape="1, 24, 1, 1" offset="15576" size="96"/>
			<output>
				<port id="0" precision="FP32">
					<dim>1</dim>
					<dim>24</dim>
					<dim>1</dim>
					<dim>1</dim>
				</port>
			</output>
		</layer>
		<layer id="55" name="Conv_66" type="Add" version="opset1">
			<data auto_broadcast="numpy"/>
			<input>
				<port id="0" precision="FP32">
					<dim>1</dim>
					<dim>24</dim>
					<dim>1</dim>
					<dim>1</dim>
				</port>
				<port id="1" precision="FP32">
					<dim>1</dim>
					<dim>24</dim>
					<dim>1</dim>
					<dim>1</dim>
				</port>
			</input>
			<output>
				<port id="2" precision="FP32" names="1600">
					<dim>1</dim>
					<dim>24</dim>
					<dim>1</dim>
					<dim>1</dim>
				</port>
			</output>
		</layer>
		<layer id="56" name="Sigmoid_67" type="Sigmoid" version="opset1">
			<input>
				<port id="0" precision="FP32">
					<dim>1</dim>
					<dim>24</dim>
					<dim>1</dim>
					<dim>1</dim>
				</port>
			</input>
			<output>
				<port id="1" precision="FP32" names="1601">
					<dim>1</dim>
					<dim>24</dim>
					<dim>1</dim>
					<dim>1</dim>
				</port>
			</output>
		</layer>
		<layer id="57" name="Mul_68" type="Multiply" version="opset1">
			<data auto_broadcast="numpy"/>
			<input>
				<port id="0" precision="FP32">
					<dim>1</dim>
					<dim>24</dim>
					<dim>1</dim>
					<dim>1</dim>
				</port>
				<port id="1" precision="FP32">
					<dim>1</dim>
					<dim>24</dim>
					<dim>256</dim>
					<dim>320</dim>
				</port>
			</input>
			<output>
				<port id="2" precision="FP32" names="1602">
					<dim>1</dim>
					<dim>24</dim>
					<dim>256</dim>
					<dim>320</dim>
				</port>
			</output>
		</layer>
		<layer id="58" name="20025" type="Const" version="opset1">
			<data element_type="f32" shape="24, 24, 1, 1" offset="15672" size="2304"/>
			<output>
				<port id="0" precision="FP32" names="20025">
					<dim>24</dim>
					<dim>24</dim>
					<dim>1</dim>
					<dim>1</dim>
				</port>
			</output>
		</layer>
		<layer id="59" name="Conv_69/WithoutBiases" type="Convolution" version="opset1">
			<data strides="1, 1" dilations="1, 1" pads_begin="0, 0" pads_end="0, 0" auto_pad="explicit"/>
			<input>
				<port id="0" precision="FP32">
					<dim>1</dim>
					<dim>24</dim>
					<dim>256</dim>
					<dim>320</dim>
				</port>
				<port id="1" precision="FP32">
					<dim>24</dim>
					<dim>24</dim>
					<dim>1</dim>
					<dim>1</dim>
				</port>
			</input>
			<output>
				<port id="2" precision="FP32">
					<dim>1</dim>
					<dim>24</dim>
					<dim>256</dim>
					<dim>320</dim>
				</port>
			</output>
		</layer>
		<layer id="60" name="Conv_69/Dims20936" type="Const" version="opset1">
			<data element_type="f32" shape="1, 24, 1, 1" offset="17976" size="96"/>
			<output>
				<port id="0" precision="FP32">
					<dim>1</dim>
					<dim>24</dim>
					<dim>1</dim>
					<dim>1</dim>
				</port>
			</output>
		</layer>
		<layer id="61" name="Conv_69" type="Add" version="opset1">
			<data auto_broadcast="numpy"/>
			<input>
				<port id="0" precision="FP32">
					<dim>1</dim>
					<dim>24</dim>
					<dim>256</dim>
					<dim>320</dim>
				</port>
				<port id="1" precision="FP32">
					<dim>1</dim>
					<dim>24</dim>
					<dim>1</dim>
					<dim>1</dim>
				</port>
			</input>
			<output>
				<port id="2" precision="FP32" names="20024">
					<dim>1</dim>
					<dim>24</dim>
					<dim>256</dim>
					<dim>320</dim>
				</port>
			</output>
		</layer>
		<layer id="62" name="Add_70" type="Add" version="opset1">
			<data auto_broadcast="numpy"/>
			<input>
				<port id="0" precision="FP32">
					<dim>1</dim>
					<dim>24</dim>
					<dim>256</dim>
					<dim>320</dim>
				</port>
				<port id="1" precision="FP32">
					<dim>1</dim>
					<dim>24</dim>
					<dim>256</dim>
					<dim>320</dim>
				</port>
			</input>
			<output>
				<port id="2" precision="FP32" names="1605">
					<dim>1</dim>
					<dim>24</dim>
					<dim>256</dim>
					<dim>320</dim>
				</port>
			</output>
		</layer>
		<layer id="63" name="20028" type="Const" version="opset1">
			<data element_type="f32" shape="144, 24, 1, 1" offset="18072" size="13824"/>
			<output>
				<port id="0" precision="FP32" names="20028">
					<dim>144</dim>
					<dim>24</dim>
					<dim>1</dim>
					<dim>1</dim>
				</port>
			</output>
		</layer>
		<layer id="64" name="Conv_71/WithoutBiases" type="Convolution" version="opset1">
			<data strides="1, 1" dilations="1, 1" pads_begin="0, 0" pads_end="0, 0" auto_pad="explicit"/>
			<input>
				<port id="0" precision="FP32">
					<dim>1</dim>
					<dim>24</dim>
					<dim>256</dim>
					<dim>320</dim>
				</port>
				<port id="1" precision="FP32">
					<dim>144</dim>
					<dim>24</dim>
					<dim>1</dim>
					<dim>1</dim>
				</port>
			</input>
			<output>
				<port id="2" precision="FP32">
					<dim>1</dim>
					<dim>144</dim>
					<dim>256</dim>
					<dim>320</dim>
				</port>
			</output>
		</layer>
		<layer id="65" name="Conv_71/Dims21788" type="Const" version="opset1">
			<data element_type="f32" shape="1, 144, 1, 1" offset="31896" size="576"/>
			<output>
				<port id="0" precision="FP32">
					<dim>1</dim>
					<dim>144</dim>
					<dim>1</dim>
					<dim>1</dim>
				</port>
			</output>
		</layer>
		<layer id="66" name="Conv_71" type="Add" version="opset1">
			<data auto_broadcast="numpy"/>
			<input>
				<port id="0" precision="FP32">
					<dim>1</dim>
					<dim>144</dim>
					<dim>256</dim>
					<dim>320</dim>
				</port>
				<port id="1" precision="FP32">
					<dim>1</dim>
					<dim>144</dim>
					<dim>1</dim>
					<dim>1</dim>
				</port>
			</input>
			<output>
				<port id="2" precision="FP32" names="20027">
					<dim>1</dim>
					<dim>144</dim>
					<dim>256</dim>
					<dim>320</dim>
				</port>
			</output>
		</layer>
		<layer id="67" name="Mul_73" type="Swish" version="opset4">
			<input>
				<port id="0" precision="FP32">
					<dim>1</dim>
					<dim>144</dim>
					<dim>256</dim>
					<dim>320</dim>
				</port>
			</input>
			<output>
				<port id="1" precision="FP32" names="1609">
					<dim>1</dim>
					<dim>144</dim>
					<dim>256</dim>
					<dim>320</dim>
				</port>
			</output>
		</layer>
		<layer id="68" name="20031" type="Const" version="opset1">
			<data element_type="f32" shape="144, 1, 1, 3, 3" offset="32472" size="5184"/>
			<output>
				<port id="0" precision="FP32" names="20031">
					<dim>144</dim>
					<dim>1</dim>
					<dim>1</dim>
					<dim>3</dim>
					<dim>3</dim>
				</port>
			</output>
		</layer>
		<layer id="69" name="Conv_89/WithoutBiases" type="GroupConvolution" version="opset1">
			<data strides="2, 2" pads_begin="0, 0" pads_end="1, 1" dilations="1, 1" auto_pad="explicit"/>
			<input>
				<port id="0" precision="FP32">
					<dim>1</dim>
					<dim>144</dim>
					<dim>256</dim>
					<dim>320</dim>
				</port>
				<port id="1" precision="FP32">
					<dim>144</dim>
					<dim>1</dim>
					<dim>1</dim>
					<dim>3</dim>
					<dim>3</dim>
				</port>
			</input>
			<output>
				<port id="2" precision="FP32">
					<dim>1</dim>
					<dim>144</dim>
					<dim>128</dim>
					<dim>160</dim>
				</port>
			</output>
		</layer>
		<layer id="70" name="Conv_89/Dims22346" type="Const" version="opset1">
			<data element_type="f32" shape="1, 144, 1, 1" offset="37656" size="576"/>
			<output>
				<port id="0" precision="FP32">
					<dim>1</dim>
					<dim>144</dim>
					<dim>1</dim>
					<dim>1</dim>
				</port>
			</output>
		</layer>
		<layer id="71" name="Conv_89" type="Add" version="opset1">
			<data auto_broadcast="numpy"/>
			<input>
				<port id="0" precision="FP32">
					<dim>1</dim>
					<dim>144</dim>
					<dim>128</dim>
					<dim>160</dim>
				</port>
				<port id="1" precision="FP32">
					<dim>1</dim>
					<dim>144</dim>
					<dim>1</dim>
					<dim>1</dim>
				</port>
			</input>
			<output>
				<port id="2" precision="FP32" names="20030">
					<dim>1</dim>
					<dim>144</dim>
					<dim>128</dim>
					<dim>160</dim>
				</port>
			</output>
		</layer>
		<layer id="72" name="Mul_91" type="Swish" version="opset4">
			<input>
				<port id="0" precision="FP32">
					<dim>1</dim>
					<dim>144</dim>
					<dim>128</dim>
					<dim>160</dim>
				</port>
			</input>
			<output>
				<port id="1" precision="FP32" names="1637">
					<dim>1</dim>
					<dim>144</dim>
					<dim>128</dim>
					<dim>160</dim>
				</port>
			</output>
		</layer>
		<layer id="73" name="2468" type="Const" version="opset1">
			<data element_type="i64" shape="" offset="6080" size="8"/>
			<output>
				<port id="0" precision="I64"/>
			</output>
		</layer>
		<layer id="74" name="GlobalAveragePool_92/input_rank/shape_of" type="ShapeOf" version="opset3">
			<data output_type="i64"/>
			<input>
				<port id="0" precision="FP32">
					<dim>1</dim>
					<dim>144</dim>
					<dim>128</dim>
					<dim>160</dim>
				</port>
			</input>
			<output>
				<port id="1" precision="I64">
					<dim>4</dim>
				</port>
			</output>
		</layer>
		<layer id="75" name="GlobalAveragePool_92/input_rank/rank_of" type="ShapeOf" version="opset3">
			<data output_type="i64"/>
			<input>
				<port id="0" precision="I64">
					<dim>4</dim>
				</port>
			</input>
			<output>
				<port id="1" precision="I64">
					<dim>1</dim>
				</port>
			</output>
		</layer>
		<layer id="76" name="GlobalAveragePool_92/input_rank/0d_rank_of/value" type="Const" version="opset1">
			<data element_type="i64" shape="1" offset="6088" size="8"/>
			<output>
				<port id="0" precision="I64">
					<dim>1</dim>
				</port>
			</output>
		</layer>
		<layer id="77" name="GlobalAveragePool_92/input_rank" type="Squeeze" version="opset1">
			<input>
				<port id="0" precision="I64">
					<dim>1</dim>
				</port>
				<port id="1" precision="I64">
					<dim>1</dim>
				</port>
			</input>
			<output>
				<port id="2" precision="I64"/>
			</output>
		</layer>
		<layer id="78" name="2470" type="Const" version="opset1">
			<data element_type="i64" shape="" offset="6096" size="8"/>
			<output>
				<port id="0" precision="I64"/>
			</output>
		</layer>
		<layer id="79" name="GlobalAveragePool_92/global_pooling_reduce_axis" type="Range" version="opset4">
			<data output_type="i64"/>
			<input>
				<port id="0" precision="I64"/>
				<port id="1" precision="I64"/>
				<port id="2" precision="I64"/>
			</input>
			<output>
				<port id="3" precision="I64">
					<dim>2</dim>
				</port>
			</output>
		</layer>
		<layer id="80" name="GlobalAveragePool_92/reduce" type="ReduceMean" version="opset1">
			<data keep_dims="true"/>
			<input>
				<port id="0" precision="FP32">
					<dim>1</dim>
					<dim>144</dim>
					<dim>128</dim>
					<dim>160</dim>
				</port>
				<port id="1" precision="I64">
					<dim>2</dim>
				</port>
			</input>
			<output>
				<port id="2" precision="FP32" names="1638">
					<dim>1</dim>
					<dim>144</dim>
					<dim>1</dim>
					<dim>1</dim>
				</port>
			</output>
		</layer>
		<layer id="81" name="encoder._blocks.2._se_reduce.weight" type="Const" version="opset1">
			<data element_type="f32" shape="6, 144, 1, 1" offset="38232" size="3456"/>
			<output>
				<port id="0" precision="FP32" names="encoder._blocks.2._se_reduce.weight">
					<dim>6</dim>
					<dim>144</dim>
					<dim>1</dim>
					<dim>1</dim>
				</port>
			</output>
		</layer>
		<layer id="82" name="Conv_93/WithoutBiases" type="Convolution" version="opset1">
			<data strides="1, 1" dilations="1, 1" pads_begin="0, 0" pads_end="0, 0" auto_pad="explicit"/>
			<input>
				<port id="0" precision="FP32">
					<dim>1</dim>
					<dim>144</dim>
					<dim>1</dim>
					<dim>1</dim>
				</port>
				<port id="1" precision="FP32">
					<dim>6</dim>
					<dim>144</dim>
					<dim>1</dim>
					<dim>1</dim>
				</port>
			</input>
			<output>
				<port id="2" precision="FP32">
					<dim>1</dim>
					<dim>6</dim>
					<dim>1</dim>
					<dim>1</dim>
				</port>
			</output>
		</layer>
		<layer id="83" name="Conv_93/Dims22184" type="Const" version="opset1">
			<data element_type="f32" shape="1, 6, 1, 1" offset="41688" size="24"/>
			<output>
				<port id="0" precision="FP32">
					<dim>1</dim>
					<dim>6</dim>
					<dim>1</dim>
					<dim>1</dim>
				</port>
			</output>
		</layer>
		<layer id="84" name="Conv_93" type="Add" version="opset1">
			<data auto_broadcast="numpy"/>
			<input>
				<port id="0" precision="FP32">
					<dim>1</dim>
					<dim>6</dim>
					<dim>1</dim>
					<dim>1</dim>
				</port>
				<port id="1" precision="FP32">
					<dim>1</dim>
					<dim>6</dim>
					<dim>1</dim>
					<dim>1</dim>
				</port>
			</input>
			<output>
				<port id="2" precision="FP32" names="1639">
					<dim>1</dim>
					<dim>6</dim>
					<dim>1</dim>
					<dim>1</dim>
				</port>
			</output>
		</layer>
		<layer id="85" name="Mul_95" type="Swish" version="opset4">
			<input>
				<port id="0" precision="FP32">
					<dim>1</dim>
					<dim>6</dim>
					<dim>1</dim>
					<dim>1</dim>
				</port>
			</input>
			<output>
				<port id="1" precision="FP32" names="1641">
					<dim>1</dim>
					<dim>6</dim>
					<dim>1</dim>
					<dim>1</dim>
				</port>
			</output>
		</layer>
		<layer id="86" name="encoder._blocks.2._se_expand.weight" type="Const" version="opset1">
			<data element_type="f32" shape="144, 6, 1, 1" offset="41712" size="3456"/>
			<output>
				<port id="0" precision="FP32" names="encoder._blocks.2._se_expand.weight">
					<dim>144</dim>
					<dim>6</dim>
					<dim>1</dim>
					<dim>1</dim>
				</port>
			</output>
		</layer>
		<layer id="87" name="Conv_96/WithoutBiases" type="Convolution" version="opset1">
			<data strides="1, 1" dilations="1, 1" pads_begin="0, 0" pads_end="0, 0" auto_pad="explicit"/>
			<input>
				<port id="0" precision="FP32">
					<dim>1</dim>
					<dim>6</dim>
					<dim>1</dim>
					<dim>1</dim>
				</port>
				<port id="1" precision="FP32">
					<dim>144</dim>
					<dim>6</dim>
					<dim>1</dim>
					<dim>1</dim>
				</port>
			</input>
			<output>
				<port id="2" precision="FP32">
					<dim>1</dim>
					<dim>144</dim>
					<dim>1</dim>
					<dim>1</dim>
				</port>
			</output>
		</layer>
		<layer id="88" name="Conv_96/Dims20972" type="Const" version="opset1">
			<data element_type="f32" shape="1, 144, 1, 1" offset="45168" size="576"/>
			<output>
				<port id="0" precision="FP32">
					<dim>1</dim>
					<dim>144</dim>
					<dim>1</dim>
					<dim>1</dim>
				</port>
			</output>
		</layer>
		<layer id="89" name="Conv_96" type="Add" version="opset1">
			<data auto_broadcast="numpy"/>
			<input>
				<port id="0" precision="FP32">
					<dim>1</dim>
					<dim>144</dim>
					<dim>1</dim>
					<dim>1</dim>
				</port>
				<port id="1" precision="FP32">
					<dim>1</dim>
					<dim>144</dim>
					<dim>1</dim>
					<dim>1</dim>
				</port>
			</input>
			<output>
				<port id="2" precision="FP32" names="1642">
					<dim>1</dim>
					<dim>144</dim>
					<dim>1</dim>
					<dim>1</dim>
				</port>
			</output>
		</layer>
		<layer id="90" name="Sigmoid_97" type="Sigmoid" version="opset1">
			<input>
				<port id="0" precision="FP32">
					<dim>1</dim>
					<dim>144</dim>
					<dim>1</dim>
					<dim>1</dim>
				</port>
			</input>
			<output>
				<port id="1" precision="FP32" names="1643">
					<dim>1</dim>
					<dim>144</dim>
					<dim>1</dim>
					<dim>1</dim>
				</port>
			</output>
		</layer>
		<layer id="91" name="Mul_98" type="Multiply" version="opset1">
			<data auto_broadcast="numpy"/>
			<input>
				<port id="0" precision="FP32">
					<dim>1</dim>
					<dim>144</dim>
					<dim>1</dim>
					<dim>1</dim>
				</port>
				<port id="1" precision="FP32">
					<dim>1</dim>
					<dim>144</dim>
					<dim>128</dim>
					<dim>160</dim>
				</port>
			</input>
			<output>
				<port id="2" precision="FP32" names="1644">
					<dim>1</dim>
					<dim>144</dim>
					<dim>128</dim>
					<dim>160</dim>
				</port>
			</output>
		</layer>
		<layer id="92" name="20034" type="Const" version="opset1">
			<data element_type="f32" shape="32, 144, 1, 1" offset="45744" size="18432"/>
			<output>
				<port id="0" precision="FP32" names="20034">
					<dim>32</dim>
					<dim>144</dim>
					<dim>1</dim>
					<dim>1</dim>
				</port>
			</output>
		</layer>
		<layer id="93" name="Conv_99/WithoutBiases" type="Convolution" version="opset1">
			<data strides="1, 1" dilations="1, 1" pads_begin="0, 0" pads_end="0, 0" auto_pad="explicit"/>
			<input>
				<port id="0" precision="FP32">
					<dim>1</dim>
					<dim>144</dim>
					<dim>128</dim>
					<dim>160</dim>
				</port>
				<port id="1" precision="FP32">
					<dim>32</dim>
					<dim>144</dim>
					<dim>1</dim>
					<dim>1</dim>
				</port>
			</input>
			<output>
				<port id="2" precision="FP32">
					<dim>1</dim>
					<dim>32</dim>
					<dim>128</dim>
					<dim>160</dim>
				</port>
			</output>
		</layer>
		<layer id="94" name="Conv_99/Dims21038" type="Const" version="opset1">
			<data element_type="f32" shape="1, 32, 1, 1" offset="64176" size="128"/>
			<output>
				<port id="0" precision="FP32">
					<dim>1</dim>
					<dim>32</dim>
					<dim>1</dim>
					<dim>1</dim>
				</port>
			</output>
		</layer>
		<layer id="95" name="Conv_99" type="Add" version="opset1">
			<data auto_broadcast="numpy"/>
			<input>
				<port id="0" precision="FP32">
					<dim>1</dim>
					<dim>32</dim>
					<dim>128</dim>
					<dim>160</dim>
				</port>
				<port id="1" precision="FP32">
					<dim>1</dim>
					<dim>32</dim>
					<dim>1</dim>
					<dim>1</dim>
				</port>
			</input>
			<output>
				<port id="2" precision="FP32" names="20033">
					<dim>1</dim>
					<dim>32</dim>
					<dim>128</dim>
					<dim>160</dim>
				</port>
			</output>
		</layer>
		<layer id="96" name="20037" type="Const" version="opset1">
			<data element_type="f32" shape="192, 32, 1, 1" offset="64304" size="24576"/>
			<output>
				<port id="0" precision="FP32" names="20037">
					<dim>192</dim>
					<dim>32</dim>
					<dim>1</dim>
					<dim>1</dim>
				</port>
			</output>
		</layer>
		<layer id="97" name="Conv_100/WithoutBiases" type="Convolution" version="opset1">
			<data strides="1, 1" dilations="1, 1" pads_begin="0, 0" pads_end="0, 0" auto_pad="explicit"/>
			<input>
				<port id="0" precision="FP32">
					<dim>1</dim>
					<dim>32</dim>
					<dim>128</dim>
					<dim>160</dim>
				</port>
				<port id="1" precision="FP32">
					<dim>192</dim>
					<dim>32</dim>
					<dim>1</dim>
					<dim>1</dim>
				</port>
			</input>
			<output>
				<port id="2" precision="FP32">
					<dim>1</dim>
					<dim>192</dim>
					<dim>128</dim>
					<dim>160</dim>
				</port>
			</output>
		</layer>
		<layer id="98" name="Conv_100/Dims21632" type="Const" version="opset1">
			<data element_type="f32" shape="1, 192, 1, 1" offset="88880" size="768"/>
			<output>
				<port id="0" precision="FP32">
					<dim>1</dim>
					<dim>192</dim>
					<dim>1</dim>
					<dim>1</dim>
				</port>
			</output>
		</layer>
		<layer id="99" name="Conv_100" type="Add" version="opset1">
			<data auto_broadcast="numpy"/>
			<input>
				<port id="0" precision="FP32">
					<dim>1</dim>
					<dim>192</dim>
					<dim>128</dim>
					<dim>160</dim>
				</port>
				<port id="1" precision="FP32">
					<dim>1</dim>
					<dim>192</dim>
					<dim>1</dim>
					<dim>1</dim>
				</port>
			</input>
			<output>
				<port id="2" precision="FP32" names="20036">
					<dim>1</dim>
					<dim>192</dim>
					<dim>128</dim>
					<dim>160</dim>
				</port>
			</output>
		</layer>
		<layer id="100" name="Mul_102" type="Swish" version="opset4">
			<input>
				<port id="0" precision="FP32">
					<dim>1</dim>
					<dim>192</dim>
					<dim>128</dim>
					<dim>160</dim>
				</port>
			</input>
			<output>
				<port id="1" precision="FP32" names="1650">
					<dim>1</dim>
					<dim>192</dim>
					<dim>128</dim>
					<dim>160</dim>
				</port>
			</output>
		</layer>
		<layer id="101" name="20040" type="Const" version="opset1">
			<data element_type="f32" shape="192, 1, 1, 3, 3" offset="89648" size="6912"/>
			<output>
				<port id="0" precision="FP32" names="20040">
					<dim>192</dim>
					<dim>1</dim>
					<dim>1</dim>
					<dim>3</dim>
					<dim>3</dim>
				</port>
			</output>
		</layer>
		<layer id="102" name="Conv_118/WithoutBiases" type="GroupConvolution" version="opset1">
			<data strides="1, 1" pads_begin="1, 1" pads_end="1, 1" dilations="1, 1" auto_pad="explicit"/>
			<input>
				<port id="0" precision="FP32">
					<dim>1</dim>
					<dim>192</dim>
					<dim>128</dim>
					<dim>160</dim>
				</port>
				<port id="1" precision="FP32">
					<dim>192</dim>
					<dim>1</dim>
					<dim>1</dim>
					<dim>3</dim>
					<dim>3</dim>
				</port>
			</input>
			<output>
				<port id="2" precision="FP32">
					<dim>1</dim>
					<dim>192</dim>
					<dim>128</dim>
					<dim>160</dim>
				</port>
			</output>
		</layer>
		<layer id="103" name="Conv_118/Dims21578" type="Const" version="opset1">
			<data element_type="f32" shape="1, 192, 1, 1" offset="96560" size="768"/>
			<output>
				<port id="0" precision="FP32">
					<dim>1</dim>
					<dim>192</dim>
					<dim>1</dim>
					<dim>1</dim>
				</port>
			</output>
		</layer>
		<layer id="104" name="Conv_118" type="Add" version="opset1">
			<data auto_broadcast="numpy"/>
			<input>
				<port id="0" precision="FP32">
					<dim>1</dim>
					<dim>192</dim>
					<dim>128</dim>
					<dim>160</dim>
				</port>
				<port id="1" precision="FP32">
					<dim>1</dim>
					<dim>192</dim>
					<dim>1</dim>
					<dim>1</dim>
				</port>
			</input>
			<output>
				<port id="2" precision="FP32" names="20039">
					<dim>1</dim>
					<dim>192</dim>
					<dim>128</dim>
					<dim>160</dim>
				</port>
			</output>
		</layer>
		<layer id="105" name="Mul_120" type="Swish" version="opset4">
			<input>
				<port id="0" precision="FP32">
					<dim>1</dim>
					<dim>192</dim>
					<dim>128</dim>
					<dim>160</dim>
				</port>
			</input>
			<output>
				<port id="1" precision="FP32" names="1678">
					<dim>1</dim>
					<dim>192</dim>
					<dim>128</dim>
					<dim>160</dim>
				</port>
			</output>
		</layer>
		<layer id="106" name="2473" type="Const" version="opset1">
			<data element_type="i64" shape="" offset="6080" size="8"/>
			<output>
				<port id="0" precision="I64"/>
			</output>
		</layer>
		<layer id="107" name="GlobalAveragePool_121/input_rank/shape_of" type="ShapeOf" version="opset3">
			<data output_type="i64"/>
			<input>
				<port id="0" precision="FP32">
					<dim>1</dim>
					<dim>192</dim>
					<dim>128</dim>
					<dim>160</dim>
				</port>
			</input>
			<output>
				<port id="1" precision="I64">
					<dim>4</dim>
				</port>
			</output>
		</layer>
		<layer id="108" name="GlobalAveragePool_121/input_rank/rank_of" type="ShapeOf" version="opset3">
			<data output_type="i64"/>
			<input>
				<port id="0" precision="I64">
					<dim>4</dim>
				</port>
			</input>
			<output>
				<port id="1" precision="I64">
					<dim>1</dim>
				</port>
			</output>
		</layer>
		<layer id="109" name="GlobalAveragePool_121/input_rank/0d_rank_of/value" type="Const" version="opset1">
			<data element_type="i64" shape="1" offset="6088" size="8"/>
			<output>
				<port id="0" precision="I64">
					<dim>1</dim>
				</port>
			</output>
		</layer>
		<layer id="110" name="GlobalAveragePool_121/input_rank" type="Squeeze" version="opset1">
			<input>
				<port id="0" precision="I64">
					<dim>1</dim>
				</port>
				<port id="1" precision="I64">
					<dim>1</dim>
				</port>
			</input>
			<output>
				<port id="2" precision="I64"/>
			</output>
		</layer>
		<layer id="111" name="2475" type="Const" version="opset1">
			<data element_type="i64" shape="" offset="6096" size="8"/>
			<output>
				<port id="0" precision="I64"/>
			</output>
		</layer>
		<layer id="112" name="GlobalAveragePool_121/global_pooling_reduce_axis" type="Range" version="opset4">
			<data output_type="i64"/>
			<input>
				<port id="0" precision="I64"/>
				<port id="1" precision="I64"/>
				<port id="2" precision="I64"/>
			</input>
			<output>
				<port id="3" precision="I64">
					<dim>2</dim>
				</port>
			</output>
		</layer>
		<layer id="113" name="GlobalAveragePool_121/reduce" type="ReduceMean" version="opset1">
			<data keep_dims="true"/>
			<input>
				<port id="0" precision="FP32">
					<dim>1</dim>
					<dim>192</dim>
					<dim>128</dim>
					<dim>160</dim>
				</port>
				<port id="1" precision="I64">
					<dim>2</dim>
				</port>
			</input>
			<output>
				<port id="2" precision="FP32" names="1679">
					<dim>1</dim>
					<dim>192</dim>
					<dim>1</dim>
					<dim>1</dim>
				</port>
			</output>
		</layer>
		<layer id="114" name="encoder._blocks.3._se_reduce.weight" type="Const" version="opset1">
			<data element_type="f32" shape="8, 192, 1, 1" offset="97328" size="6144"/>
			<output>
				<port id="0" precision="FP32" names="encoder._blocks.3._se_reduce.weight">
					<dim>8</dim>
					<dim>192</dim>
					<dim>1</dim>
					<dim>1</dim>
				</port>
			</output>
		</layer>
		<layer id="115" name="Conv_122/WithoutBiases" type="Convolution" version="opset1">
			<data strides="1, 1" dilations="1, 1" pads_begin="0, 0" pads_end="0, 0" auto_pad="explicit"/>
			<input>
				<port id="0" precision="FP32">
					<dim>1</dim>
					<dim>192</dim>
					<dim>1</dim>
					<dim>1</dim>
				</port>
				<port id="1" precision="FP32">
					<dim>8</dim>
					<dim>192</dim>
					<dim>1</dim>
					<dim>1</dim>
				</port>
			</input>
			<output>
				<port id="2" precision="FP32">
					<dim>1</dim>
					<dim>8</dim>
					<dim>1</dim>
					<dim>1</dim>
				</port>
			</output>
		</layer>
		<layer id="116" name="Conv_122/Dims22070" type="Const" version="opset1">
			<data element_type="f32" shape="1, 8, 1, 1" offset="103472" size="32"/>
			<output>
				<port id="0" precision="FP32">
					<dim>1</dim>
					<dim>8</dim>
					<dim>1</dim>
					<dim>1</dim>
				</port>
			</output>
		</layer>
		<layer id="117" name="Conv_122" type="Add" version="opset1">
			<data auto_broadcast="numpy"/>
			<input>
				<port id="0" precision="FP32">
					<dim>1</dim>
					<dim>8</dim>
					<dim>1</dim>
					<dim>1</dim>
				</port>
				<port id="1" precision="FP32">
					<dim>1</dim>
					<dim>8</dim>
					<dim>1</dim>
					<dim>1</dim>
				</port>
			</input>
			<output>
				<port id="2" precision="FP32" names="1680">
					<dim>1</dim>
					<dim>8</dim>
					<dim>1</dim>
					<dim>1</dim>
				</port>
			</output>
		</layer>
		<layer id="118" name="Mul_124" type="Swish" version="opset4">
			<input>
				<port id="0" precision="FP32">
					<dim>1</dim>
					<dim>8</dim>
					<dim>1</dim>
					<dim>1</dim>
				</port>
			</input>
			<output>
				<port id="1" precision="FP32" names="1682">
					<dim>1</dim>
					<dim>8</dim>
					<dim>1</dim>
					<dim>1</dim>
				</port>
			</output>
		</layer>
		<layer id="119" name="encoder._blocks.3._se_expand.weight" type="Const" version="opset1">
			<data element_type="f32" shape="192, 8, 1, 1" offset="103504" size="6144"/>
			<output>
				<port id="0" precision="FP32" names="encoder._blocks.3._se_expand.weight">
					<dim>192</dim>
					<dim>8</dim>
					<dim>1</dim>
					<dim>1</dim>
				</port>
			</output>
		</layer>
		<layer id="120" name="Conv_125/WithoutBiases" type="Convolution" version="opset1">
			<data strides="1, 1" dilations="1, 1" pads_begin="0, 0" pads_end="0, 0" auto_pad="explicit"/>
			<input>
				<port id="0" precision="FP32">
					<dim>1</dim>
					<dim>8</dim>
					<dim>1</dim>
					<dim>1</dim>
				</port>
				<port id="1" precision="FP32">
					<dim>192</dim>
					<dim>8</dim>
					<dim>1</dim>
					<dim>1</dim>
				</port>
			</input>
			<output>
				<port id="2" precision="FP32">
					<dim>1</dim>
					<dim>192</dim>
					<dim>1</dim>
					<dim>1</dim>
				</port>
			</output>
		</layer>
		<layer id="121" name="Conv_125/Dims21902" type="Const" version="opset1">
			<data element_type="f32" shape="1, 192, 1, 1" offset="109648" size="768"/>
			<output>
				<port id="0" precision="FP32">
					<dim>1</dim>
					<dim>192</dim>
					<dim>1</dim>
					<dim>1</dim>
				</port>
			</output>
		</layer>
		<layer id="122" name="Conv_125" type="Add" version="opset1">
			<data auto_broadcast="numpy"/>
			<input>
				<port id="0" precision="FP32">
					<dim>1</dim>
					<dim>192</dim>
					<dim>1</dim>
					<dim>1</dim>
				</port>
				<port id="1" precision="FP32">
					<dim>1</dim>
					<dim>192</dim>
					<dim>1</dim>
					<dim>1</dim>
				</port>
			</input>
			<output>
				<port id="2" precision="FP32" names="1683">
					<dim>1</dim>
					<dim>192</dim>
					<dim>1</dim>
					<dim>1</dim>
				</port>
			</output>
		</layer>
		<layer id="123" name="Sigmoid_126" type="Sigmoid" version="opset1">
			<input>
				<port id="0" precision="FP32">
					<dim>1</dim>
					<dim>192</dim>
					<dim>1</dim>
					<dim>1</dim>
				</port>
			</input>
			<output>
				<port id="1" precision="FP32" names="1684">
					<dim>1</dim>
					<dim>192</dim>
					<dim>1</dim>
					<dim>1</dim>
				</port>
			</output>
		</layer>
		<layer id="124" name="Mul_127" type="Multiply" version="opset1">
			<data auto_broadcast="numpy"/>
			<input>
				<port id="0" precision="FP32">
					<dim>1</dim>
					<dim>192</dim>
					<dim>1</dim>
					<dim>1</dim>
				</port>
				<port id="1" precision="FP32">
					<dim>1</dim>
					<dim>192</dim>
					<dim>128</dim>
					<dim>160</dim>
				</port>
			</input>
			<output>
				<port id="2" precision="FP32" names="1685">
					<dim>1</dim>
					<dim>192</dim>
					<dim>128</dim>
					<dim>160</dim>
				</port>
			</output>
		</layer>
		<layer id="125" name="20043" type="Const" version="opset1">
			<data element_type="f32" shape="32, 192, 1, 1" offset="110416" size="24576"/>
			<output>
				<port id="0" precision="FP32" names="20043">
					<dim>32</dim>
					<dim>192</dim>
					<dim>1</dim>
					<dim>1</dim>
				</port>
			</output>
		</layer>
		<layer id="126" name="Conv_128/WithoutBiases" type="Convolution" version="opset1">
			<data strides="1, 1" dilations="1, 1" pads_begin="0, 0" pads_end="0, 0" auto_pad="explicit"/>
			<input>
				<port id="0" precision="FP32">
					<dim>1</dim>
					<dim>192</dim>
					<dim>128</dim>
					<dim>160</dim>
				</port>
				<port id="1" precision="FP32">
					<dim>32</dim>
					<dim>192</dim>
					<dim>1</dim>
					<dim>1</dim>
				</port>
			</input>
			<output>
				<port id="2" precision="FP32">
					<dim>1</dim>
					<dim>32</dim>
					<dim>128</dim>
					<dim>160</dim>
				</port>
			</output>
		</layer>
		<layer id="127" name="Conv_128/Dims22316" type="Const" version="opset1">
			<data element_type="f32" shape="1, 32, 1, 1" offset="134992" size="128"/>
			<output>
				<port id="0" precision="FP32">
					<dim>1</dim>
					<dim>32</dim>
					<dim>1</dim>
					<dim>1</dim>
				</port>
			</output>
		</layer>
		<layer id="128" name="Conv_128" type="Add" version="opset1">
			<data auto_broadcast="numpy"/>
			<input>
				<port id="0" precision="FP32">
					<dim>1</dim>
					<dim>32</dim>
					<dim>128</dim>
					<dim>160</dim>
				</port>
				<port id="1" precision="FP32">
					<dim>1</dim>
					<dim>32</dim>
					<dim>1</dim>
					<dim>1</dim>
				</port>
			</input>
			<output>
				<port id="2" precision="FP32" names="20042">
					<dim>1</dim>
					<dim>32</dim>
					<dim>128</dim>
					<dim>160</dim>
				</port>
			</output>
		</layer>
		<layer id="129" name="Add_129" type="Add" version="opset1">
			<data auto_broadcast="numpy"/>
			<input>
				<port id="0" precision="FP32">
					<dim>1</dim>
					<dim>32</dim>
					<dim>128</dim>
					<dim>160</dim>
				</port>
				<port id="1" precision="FP32">
					<dim>1</dim>
					<dim>32</dim>
					<dim>128</dim>
					<dim>160</dim>
				</port>
			</input>
			<output>
				<port id="2" precision="FP32" names="1688">
					<dim>1</dim>
					<dim>32</dim>
					<dim>128</dim>
					<dim>160</dim>
				</port>
			</output>
		</layer>
		<layer id="130" name="20046" type="Const" version="opset1">
			<data element_type="f32" shape="192, 32, 1, 1" offset="135120" size="24576"/>
			<output>
				<port id="0" precision="FP32" names="20046">
					<dim>192</dim>
					<dim>32</dim>
					<dim>1</dim>
					<dim>1</dim>
				</port>
			</output>
		</layer>
		<layer id="131" name="Conv_130/WithoutBiases" type="Convolution" version="opset1">
			<data strides="1, 1" dilations="1, 1" pads_begin="0, 0" pads_end="0, 0" auto_pad="explicit"/>
			<input>
				<port id="0" precision="FP32">
					<dim>1</dim>
					<dim>32</dim>
					<dim>128</dim>
					<dim>160</dim>
				</port>
				<port id="1" precision="FP32">
					<dim>192</dim>
					<dim>32</dim>
					<dim>1</dim>
					<dim>1</dim>
				</port>
			</input>
			<output>
				<port id="2" precision="FP32">
					<dim>1</dim>
					<dim>192</dim>
					<dim>128</dim>
					<dim>160</dim>
				</port>
			</output>
		</layer>
		<layer id="132" name="Conv_130/Dims21938" type="Const" version="opset1">
			<data element_type="f32" shape="1, 192, 1, 1" offset="159696" size="768"/>
			<output>
				<port id="0" precision="FP32">
					<dim>1</dim>
					<dim>192</dim>
					<dim>1</dim>
					<dim>1</dim>
				</port>
			</output>
		</layer>
		<layer id="133" name="Conv_130" type="Add" version="opset1">
			<data auto_broadcast="numpy"/>
			<input>
				<port id="0" precision="FP32">
					<dim>1</dim>
					<dim>192</dim>
					<dim>128</dim>
					<dim>160</dim>
				</port>
				<port id="1" precision="FP32">
					<dim>1</dim>
					<dim>192</dim>
					<dim>1</dim>
					<dim>1</dim>
				</port>
			</input>
			<output>
				<port id="2" precision="FP32" names="20045">
					<dim>1</dim>
					<dim>192</dim>
					<dim>128</dim>
					<dim>160</dim>
				</port>
			</output>
		</layer>
		<layer id="134" name="Mul_132" type="Swish" version="opset4">
			<input>
				<port id="0" precision="FP32">
					<dim>1</dim>
					<dim>192</dim>
					<dim>128</dim>
					<dim>160</dim>
				</port>
			</input>
			<output>
				<port id="1" precision="FP32" names="1692">
					<dim>1</dim>
					<dim>192</dim>
					<dim>128</dim>
					<dim>160</dim>
				</port>
			</output>
		</layer>
		<layer id="135" name="20049" type="Const" version="opset1">
			<data element_type="f32" shape="192, 1, 1, 3, 3" offset="160464" size="6912"/>
			<output>
				<port id="0" precision="FP32" names="20049">
					<dim>192</dim>
					<dim>1</dim>
					<dim>1</dim>
					<dim>3</dim>
					<dim>3</dim>
				</port>
			</output>
		</layer>
		<layer id="136" name="Conv_148/WithoutBiases" type="GroupConvolution" version="opset1">
			<data strides="1, 1" pads_begin="1, 1" pads_end="1, 1" dilations="1, 1" auto_pad="explicit"/>
			<input>
				<port id="0" precision="FP32">
					<dim>1</dim>
					<dim>192</dim>
					<dim>128</dim>
					<dim>160</dim>
				</port>
				<port id="1" precision="FP32">
					<dim>192</dim>
					<dim>1</dim>
					<dim>1</dim>
					<dim>3</dim>
					<dim>3</dim>
				</port>
			</input>
			<output>
				<port id="2" precision="FP32">
					<dim>1</dim>
					<dim>192</dim>
					<dim>128</dim>
					<dim>160</dim>
				</port>
			</output>
		</layer>
		<layer id="137" name="Conv_148/Dims20948" type="Const" version="opset1">
			<data element_type="f32" shape="1, 192, 1, 1" offset="167376" size="768"/>
			<output>
				<port id="0" precision="FP32">
					<dim>1</dim>
					<dim>192</dim>
					<dim>1</dim>
					<dim>1</dim>
				</port>
			</output>
		</layer>
		<layer id="138" name="Conv_148" type="Add" version="opset1">
			<data auto_broadcast="numpy"/>
			<input>
				<port id="0" precision="FP32">
					<dim>1</dim>
					<dim>192</dim>
					<dim>128</dim>
					<dim>160</dim>
				</port>
				<port id="1" precision="FP32">
					<dim>1</dim>
					<dim>192</dim>
					<dim>1</dim>
					<dim>1</dim>
				</port>
			</input>
			<output>
				<port id="2" precision="FP32" names="20048">
					<dim>1</dim>
					<dim>192</dim>
					<dim>128</dim>
					<dim>160</dim>
				</port>
			</output>
		</layer>
		<layer id="139" name="Mul_150" type="Swish" version="opset4">
			<input>
				<port id="0" precision="FP32">
					<dim>1</dim>
					<dim>192</dim>
					<dim>128</dim>
					<dim>160</dim>
				</port>
			</input>
			<output>
				<port id="1" precision="FP32" names="1720">
					<dim>1</dim>
					<dim>192</dim>
					<dim>128</dim>
					<dim>160</dim>
				</port>
			</output>
		</layer>
		<layer id="140" name="2478" type="Const" version="opset1">
			<data element_type="i64" shape="" offset="6080" size="8"/>
			<output>
				<port id="0" precision="I64"/>
			</output>
		</layer>
		<layer id="141" name="GlobalAveragePool_151/input_rank/shape_of" type="ShapeOf" version="opset3">
			<data output_type="i64"/>
			<input>
				<port id="0" precision="FP32">
					<dim>1</dim>
					<dim>192</dim>
					<dim>128</dim>
					<dim>160</dim>
				</port>
			</input>
			<output>
				<port id="1" precision="I64">
					<dim>4</dim>
				</port>
			</output>
		</layer>
		<layer id="142" name="GlobalAveragePool_151/input_rank/rank_of" type="ShapeOf" version="opset3">
			<data output_type="i64"/>
			<input>
				<port id="0" precision="I64">
					<dim>4</dim>
				</port>
			</input>
			<output>
				<port id="1" precision="I64">
					<dim>1</dim>
				</port>
			</output>
		</layer>
		<layer id="143" name="GlobalAveragePool_151/input_rank/0d_rank_of/value" type="Const" version="opset1">
			<data element_type="i64" shape="1" offset="6088" size="8"/>
			<output>
				<port id="0" precision="I64">
					<dim>1</dim>
				</port>
			</output>
		</layer>
		<layer id="144" name="GlobalAveragePool_151/input_rank" type="Squeeze" version="opset1">
			<input>
				<port id="0" precision="I64">
					<dim>1</dim>
				</port>
				<port id="1" precision="I64">
					<dim>1</dim>
				</port>
			</input>
			<output>
				<port id="2" precision="I64"/>
			</output>
		</layer>
		<layer id="145" name="2480" type="Const" version="opset1">
			<data element_type="i64" shape="" offset="6096" size="8"/>
			<output>
				<port id="0" precision="I64"/>
			</output>
		</layer>
		<layer id="146" name="GlobalAveragePool_151/global_pooling_reduce_axis" type="Range" version="opset4">
			<data output_type="i64"/>
			<input>
				<port id="0" precision="I64"/>
				<port id="1" precision="I64"/>
				<port id="2" precision="I64"/>
			</input>
			<output>
				<port id="3" precision="I64">
					<dim>2</dim>
				</port>
			</output>
		</layer>
		<layer id="147" name="GlobalAveragePool_151/reduce" type="ReduceMean" version="opset1">
			<data keep_dims="true"/>
			<input>
				<port id="0" precision="FP32">
					<dim>1</dim>
					<dim>192</dim>
					<dim>128</dim>
					<dim>160</dim>
				</port>
				<port id="1" precision="I64">
					<dim>2</dim>
				</port>
			</input>
			<output>
				<port id="2" precision="FP32" names="1721">
					<dim>1</dim>
					<dim>192</dim>
					<dim>1</dim>
					<dim>1</dim>
				</port>
			</output>
		</layer>
		<layer id="148" name="encoder._blocks.4._se_reduce.weight" type="Const" version="opset1">
			<data element_type="f32" shape="8, 192, 1, 1" offset="168144" size="6144"/>
			<output>
				<port id="0" precision="FP32" names="encoder._blocks.4._se_reduce.weight">
					<dim>8</dim>
					<dim>192</dim>
					<dim>1</dim>
					<dim>1</dim>
				</port>
			</output>
		</layer>
		<layer id="149" name="Conv_152/WithoutBiases" type="Convolution" version="opset1">
			<data strides="1, 1" dilations="1, 1" pads_begin="0, 0" pads_end="0, 0" auto_pad="explicit"/>
			<input>
				<port id="0" precision="FP32">
					<dim>1</dim>
					<dim>192</dim>
					<dim>1</dim>
					<dim>1</dim>
				</port>
				<port id="1" precision="FP32">
					<dim>8</dim>
					<dim>192</dim>
					<dim>1</dim>
					<dim>1</dim>
				</port>
			</input>
			<output>
				<port id="2" precision="FP32">
					<dim>1</dim>
					<dim>8</dim>
					<dim>1</dim>
					<dim>1</dim>
				</port>
			</output>
		</layer>
		<layer id="150" name="Conv_152/Dims21758" type="Const" version="opset1">
			<data element_type="f32" shape="1, 8, 1, 1" offset="174288" size="32"/>
			<output>
				<port id="0" precision="FP32">
					<dim>1</dim>
					<dim>8</dim>
					<dim>1</dim>
					<dim>1</dim>
				</port>
			</output>
		</layer>
		<layer id="151" name="Conv_152" type="Add" version="opset1">
			<data auto_broadcast="numpy"/>
			<input>
				<port id="0" precision="FP32">
					<dim>1</dim>
					<dim>8</dim>
					<dim>1</dim>
					<dim>1</dim>
				</port>
				<port id="1" precision="FP32">
					<dim>1</dim>
					<dim>8</dim>
					<dim>1</dim>
					<dim>1</dim>
				</port>
			</input>
			<output>
				<port id="2" precision="FP32" names="1722">
					<dim>1</dim>
					<dim>8</dim>
					<dim>1</dim>
					<dim>1</dim>
				</port>
			</output>
		</layer>
		<layer id="152" name="Mul_154" type="Swish" version="opset4">
			<input>
				<port id="0" precision="FP32">
					<dim>1</dim>
					<dim>8</dim>
					<dim>1</dim>
					<dim>1</dim>
				</port>
			</input>
			<output>
				<port id="1" precision="FP32" names="1724">
					<dim>1</dim>
					<dim>8</dim>
					<dim>1</dim>
					<dim>1</dim>
				</port>
			</output>
		</layer>
		<layer id="153" name="encoder._blocks.4._se_expand.weight" type="Const" version="opset1">
			<data element_type="f32" shape="192, 8, 1, 1" offset="174320" size="6144"/>
			<output>
				<port id="0" precision="FP32" names="encoder._blocks.4._se_expand.weight">
					<dim>192</dim>
					<dim>8</dim>
					<dim>1</dim>
					<dim>1</dim>
				</port>
			</output>
		</layer>
		<layer id="154" name="Conv_155/WithoutBiases" type="Convolution" version="opset1">
			<data strides="1, 1" dilations="1, 1" pads_begin="0, 0" pads_end="0, 0" auto_pad="explicit"/>
			<input>
				<port id="0" precision="FP32">
					<dim>1</dim>
					<dim>8</dim>
					<dim>1</dim>
					<dim>1</dim>
				</port>
				<port id="1" precision="FP32">
					<dim>192</dim>
					<dim>8</dim>
					<dim>1</dim>
					<dim>1</dim>
				</port>
			</input>
			<output>
				<port id="2" precision="FP32">
					<dim>1</dim>
					<dim>192</dim>
					<dim>1</dim>
					<dim>1</dim>
				</port>
			</output>
		</layer>
		<layer id="155" name="Conv_155/Dims22472" type="Const" version="opset1">
			<data element_type="f32" shape="1, 192, 1, 1" offset="180464" size="768"/>
			<output>
				<port id="0" precision="FP32">
					<dim>1</dim>
					<dim>192</dim>
					<dim>1</dim>
					<dim>1</dim>
				</port>
			</output>
		</layer>
		<layer id="156" name="Conv_155" type="Add" version="opset1">
			<data auto_broadcast="numpy"/>
			<input>
				<port id="0" precision="FP32">
					<dim>1</dim>
					<dim>192</dim>
					<dim>1</dim>
					<dim>1</dim>
				</port>
				<port id="1" precision="FP32">
					<dim>1</dim>
					<dim>192</dim>
					<dim>1</dim>
					<dim>1</dim>
				</port>
			</input>
			<output>
				<port id="2" precision="FP32" names="1725">
					<dim>1</dim>
					<dim>192</dim>
					<dim>1</dim>
					<dim>1</dim>
				</port>
			</output>
		</layer>
		<layer id="157" name="Sigmoid_156" type="Sigmoid" version="opset1">
			<input>
				<port id="0" precision="FP32">
					<dim>1</dim>
					<dim>192</dim>
					<dim>1</dim>
					<dim>1</dim>
				</port>
			</input>
			<output>
				<port id="1" precision="FP32" names="1726">
					<dim>1</dim>
					<dim>192</dim>
					<dim>1</dim>
					<dim>1</dim>
				</port>
			</output>
		</layer>
		<layer id="158" name="Mul_157" type="Multiply" version="opset1">
			<data auto_broadcast="numpy"/>
			<input>
				<port id="0" precision="FP32">
					<dim>1</dim>
					<dim>192</dim>
					<dim>1</dim>
					<dim>1</dim>
				</port>
				<port id="1" precision="FP32">
					<dim>1</dim>
					<dim>192</dim>
					<dim>128</dim>
					<dim>160</dim>
				</port>
			</input>
			<output>
				<port id="2" precision="FP32" names="1727">
					<dim>1</dim>
					<dim>192</dim>
					<dim>128</dim>
					<dim>160</dim>
				</port>
			</output>
		</layer>
		<layer id="159" name="20052" type="Const" version="opset1">
			<data element_type="f32" shape="32, 192, 1, 1" offset="181232" size="24576"/>
			<output>
				<port id="0" precision="FP32" names="20052">
					<dim>32</dim>
					<dim>192</dim>
					<dim>1</dim>
					<dim>1</dim>
				</port>
			</output>
		</layer>
		<layer id="160" name="Conv_158/WithoutBiases" type="Convolution" version="opset1">
			<data strides="1, 1" dilations="1, 1" pads_begin="0, 0" pads_end="0, 0" auto_pad="explicit"/>
			<input>
				<port id="0" precision="FP32">
					<dim>1</dim>
					<dim>192</dim>
					<dim>128</dim>
					<dim>160</dim>
				</port>
				<port id="1" precision="FP32">
					<dim>32</dim>
					<dim>192</dim>
					<dim>1</dim>
					<dim>1</dim>
				</port>
			</input>
			<output>
				<port id="2" precision="FP32">
					<dim>1</dim>
					<dim>32</dim>
					<dim>128</dim>
					<dim>160</dim>
				</port>
			</output>
		</layer>
		<layer id="161" name="Conv_158/Dims21704" type="Const" version="opset1">
			<data element_type="f32" shape="1, 32, 1, 1" offset="205808" size="128"/>
			<output>
				<port id="0" precision="FP32">
					<dim>1</dim>
					<dim>32</dim>
					<dim>1</dim>
					<dim>1</dim>
				</port>
			</output>
		</layer>
		<layer id="162" name="Conv_158" type="Add" version="opset1">
			<data auto_broadcast="numpy"/>
			<input>
				<port id="0" precision="FP32">
					<dim>1</dim>
					<dim>32</dim>
					<dim>128</dim>
					<dim>160</dim>
				</port>
				<port id="1" precision="FP32">
					<dim>1</dim>
					<dim>32</dim>
					<dim>1</dim>
					<dim>1</dim>
				</port>
			</input>
			<output>
				<port id="2" precision="FP32" names="20051">
					<dim>1</dim>
					<dim>32</dim>
					<dim>128</dim>
					<dim>160</dim>
				</port>
			</output>
		</layer>
		<layer id="163" name="Add_159" type="Add" version="opset1">
			<data auto_broadcast="numpy"/>
			<input>
				<port id="0" precision="FP32">
					<dim>1</dim>
					<dim>32</dim>
					<dim>128</dim>
					<dim>160</dim>
				</port>
				<port id="1" precision="FP32">
					<dim>1</dim>
					<dim>32</dim>
					<dim>128</dim>
					<dim>160</dim>
				</port>
			</input>
			<output>
				<port id="2" precision="FP32" names="1730">
					<dim>1</dim>
					<dim>32</dim>
					<dim>128</dim>
					<dim>160</dim>
				</port>
			</output>
		</layer>
		<layer id="164" name="20496" type="Const" version="opset1">
			<data element_type="f32" shape="64, 32, 3, 3" offset="205936" size="73728"/>
			<output>
				<port id="0" precision="FP32" names="20496">
					<dim>64</dim>
					<dim>32</dim>
					<dim>3</dim>
					<dim>3</dim>
				</port>
			</output>
		</layer>
		<layer id="165" name="Conv_11206/WithoutBiases" type="Convolution" version="opset1">
			<data strides="1, 1" dilations="1, 1" pads_begin="1, 1" pads_end="1, 1" auto_pad="explicit"/>
			<input>
				<port id="0" precision="FP32">
					<dim>1</dim>
					<dim>32</dim>
					<dim>128</dim>
					<dim>160</dim>
				</port>
				<port id="1" precision="FP32">
					<dim>64</dim>
					<dim>32</dim>
					<dim>3</dim>
					<dim>3</dim>
				</port>
			</input>
			<output>
				<port id="2" precision="FP32">
					<dim>1</dim>
					<dim>64</dim>
					<dim>128</dim>
					<dim>160</dim>
				</port>
			</output>
		</layer>
		<layer id="166" name="Conv_11206/Dims21068" type="Const" version="opset1">
			<data element_type="f32" shape="1, 64, 1, 1" offset="279664" size="256"/>
			<output>
				<port id="0" precision="FP32">
					<dim>1</dim>
					<dim>64</dim>
					<dim>1</dim>
					<dim>1</dim>
				</port>
			</output>
		</layer>
		<layer id="167" name="Conv_11206" type="Add" version="opset1">
			<data auto_broadcast="numpy"/>
			<input>
				<port id="0" precision="FP32">
					<dim>1</dim>
					<dim>64</dim>
					<dim>128</dim>
					<dim>160</dim>
				</port>
				<port id="1" precision="FP32">
					<dim>1</dim>
					<dim>64</dim>
					<dim>1</dim>
					<dim>1</dim>
				</port>
			</input>
			<output>
				<port id="2" precision="FP32" names="20495">
					<dim>1</dim>
					<dim>64</dim>
					<dim>128</dim>
					<dim>160</dim>
				</port>
			</output>
		</layer>
		<layer id="168" name="Mul_11208" type="Swish" version="opset4">
			<input>
				<port id="0" precision="FP32">
					<dim>1</dim>
					<dim>64</dim>
					<dim>128</dim>
					<dim>160</dim>
				</port>
			</input>
			<output>
				<port id="1" precision="FP32" names="13755">
					<dim>1</dim>
					<dim>64</dim>
					<dim>128</dim>
					<dim>160</dim>
				</port>
			</output>
		</layer>
		<layer id="169" name="bifpndecoder.seg_p2.block.0.conv_sp.depthwise_conv.conv.weight" type="Const" version="opset1">
			<data element_type="f32" shape="64, 1, 1, 3, 3" offset="279920" size="2304"/>
			<output>
				<port id="0" precision="FP32" names="bifpndecoder.seg_p2.block.0.conv_sp.depthwise_conv.conv.weight">
					<dim>64</dim>
					<dim>1</dim>
					<dim>1</dim>
					<dim>3</dim>
					<dim>3</dim>
				</port>
			</output>
		</layer>
		<layer id="170" name="Conv_11263" type="GroupConvolution" version="opset1">
			<data strides="1, 1" pads_begin="1, 1" pads_end="1, 1" dilations="1, 1" auto_pad="explicit"/>
			<input>
				<port id="0" precision="FP32">
					<dim>1</dim>
					<dim>64</dim>
					<dim>128</dim>
					<dim>160</dim>
				</port>
				<port id="1" precision="FP32">
					<dim>64</dim>
					<dim>1</dim>
					<dim>1</dim>
					<dim>3</dim>
					<dim>3</dim>
				</port>
			</input>
			<output>
				<port id="2" precision="FP32" names="13813">
					<dim>1</dim>
					<dim>64</dim>
					<dim>128</dim>
					<dim>160</dim>
				</port>
			</output>
		</layer>
		<layer id="171" name="20499" type="Const" version="opset1">
			<data element_type="f32" shape="64, 64, 1, 1" offset="282224" size="16384"/>
			<output>
				<port id="0" precision="FP32" names="20499">
					<dim>64</dim>
					<dim>64</dim>
					<dim>1</dim>
					<dim>1</dim>
				</port>
			</output>
		</layer>
		<layer id="172" name="Conv_11318/WithoutBiases" type="Convolution" version="opset1">
			<data strides="1, 1" dilations="1, 1" pads_begin="0, 0" pads_end="0, 0" auto_pad="explicit"/>
			<input>
				<port id="0" precision="FP32">
					<dim>1</dim>
					<dim>64</dim>
					<dim>128</dim>
					<dim>160</dim>
				</port>
				<port id="1" precision="FP32">
					<dim>64</dim>
					<dim>64</dim>
					<dim>1</dim>
					<dim>1</dim>
				</port>
			</input>
			<output>
				<port id="2" precision="FP32">
					<dim>1</dim>
					<dim>64</dim>
					<dim>128</dim>
					<dim>160</dim>
				</port>
			</output>
		</layer>
		<layer id="173" name="data_add_35785" type="Const" version="opset1">
			<data element_type="f32" shape="1, 64, 1, 1" offset="298608" size="256"/>
			<output>
				<port id="0" precision="FP32">
					<dim>1</dim>
					<dim>64</dim>
					<dim>1</dim>
					<dim>1</dim>
				</port>
			</output>
		</layer>
		<layer id="174" name="Conv_11318/Fused_Add_" type="Add" version="opset1">
			<data auto_broadcast="numpy"/>
			<input>
				<port id="0" precision="FP32">
					<dim>1</dim>
					<dim>64</dim>
					<dim>128</dim>
					<dim>160</dim>
				</port>
				<port id="1" precision="FP32">
					<dim>1</dim>
					<dim>64</dim>
					<dim>1</dim>
					<dim>1</dim>
				</port>
			</input>
			<output>
				<port id="2" precision="FP32" names="13874">
					<dim>1</dim>
					<dim>64</dim>
					<dim>128</dim>
					<dim>160</dim>
				</port>
			</output>
		</layer>
		<layer id="175" name="10767" type="Const" version="opset1">
			<data element_type="f32" shape="1, 1, 1, 1" offset="298864" size="4"/>
			<output>
				<port id="0" precision="FP32" names="10767">
					<dim>1</dim>
					<dim>1</dim>
					<dim>1</dim>
					<dim>1</dim>
				</port>
			</output>
		</layer>
		<layer id="176" name="9455" type="Const" version="opset1">
			<data element_type="f32" shape="1, 1, 1, 1" offset="298868" size="4"/>
			<output>
				<port id="0" precision="FP32" names="9455">
					<dim>1</dim>
					<dim>1</dim>
					<dim>1</dim>
					<dim>1</dim>
				</port>
			</output>
		</layer>
		<layer id="177" name="8143" type="Const" version="opset1">
			<data element_type="f32" shape="1, 1, 1, 1" offset="298872" size="4"/>
			<output>
				<port id="0" precision="FP32" names="8143">
					<dim>1</dim>
					<dim>1</dim>
					<dim>1</dim>
					<dim>1</dim>
				</port>
			</output>
		</layer>
		<layer id="178" name="6831" type="Const" version="opset1">
			<data element_type="f32" shape="1, 1, 1, 1" offset="298876" size="4"/>
			<output>
				<port id="0" precision="FP32" names="6831">
					<dim>1</dim>
					<dim>1</dim>
					<dim>1</dim>
					<dim>1</dim>
				</port>
			</output>
		</layer>
		<layer id="179" name="5519" type="Const" version="opset1">
			<data element_type="f32" shape="1, 1, 1, 1" offset="298880" size="4"/>
			<output>
				<port id="0" precision="FP32" names="5519">
					<dim>1</dim>
					<dim>1</dim>
					<dim>1</dim>
					<dim>1</dim>
				</port>
			</output>
		</layer>
		<layer id="180" name="4207" type="Const" version="opset1">
			<data element_type="f32" shape="1, 1, 1, 1" offset="298884" size="4"/>
			<output>
				<port id="0" precision="FP32" names="4207">
					<dim>1</dim>
					<dim>1</dim>
					<dim>1</dim>
					<dim>1</dim>
				</port>
			</output>
		</layer>
		<layer id="181" name="20055" type="Const" version="opset1">
			<data element_type="f32" shape="192, 32, 1, 1" offset="298888" size="24576"/>
			<output>
				<port id="0" precision="FP32" names="20055">
					<dim>192</dim>
					<dim>32</dim>
					<dim>1</dim>
					<dim>1</dim>
				</port>
			</output>
		</layer>
		<layer id="182" name="Conv_160/WithoutBiases" type="Convolution" version="opset1">
			<data strides="1, 1" dilations="1, 1" pads_begin="0, 0" pads_end="0, 0" auto_pad="explicit"/>
			<input>
				<port id="0" precision="FP32">
					<dim>1</dim>
					<dim>32</dim>
					<dim>128</dim>
					<dim>160</dim>
				</port>
				<port id="1" precision="FP32">
					<dim>192</dim>
					<dim>32</dim>
					<dim>1</dim>
					<dim>1</dim>
				</port>
			</input>
			<output>
				<port id="2" precision="FP32">
					<dim>1</dim>
					<dim>192</dim>
					<dim>128</dim>
					<dim>160</dim>
				</port>
			</output>
		</layer>
		<layer id="183" name="Conv_160/Dims22034" type="Const" version="opset1">
			<data element_type="f32" shape="1, 192, 1, 1" offset="323464" size="768"/>
			<output>
				<port id="0" precision="FP32">
					<dim>1</dim>
					<dim>192</dim>
					<dim>1</dim>
					<dim>1</dim>
				</port>
			</output>
		</layer>
		<layer id="184" name="Conv_160" type="Add" version="opset1">
			<data auto_broadcast="numpy"/>
			<input>
				<port id="0" precision="FP32">
					<dim>1</dim>
					<dim>192</dim>
					<dim>128</dim>
					<dim>160</dim>
				</port>
				<port id="1" precision="FP32">
					<dim>1</dim>
					<dim>192</dim>
					<dim>1</dim>
					<dim>1</dim>
				</port>
			</input>
			<output>
				<port id="2" precision="FP32" names="20054">
					<dim>1</dim>
					<dim>192</dim>
					<dim>128</dim>
					<dim>160</dim>
				</port>
			</output>
		</layer>
		<layer id="185" name="Mul_162" type="Swish" version="opset4">
			<input>
				<port id="0" precision="FP32">
					<dim>1</dim>
					<dim>192</dim>
					<dim>128</dim>
					<dim>160</dim>
				</port>
			</input>
			<output>
				<port id="1" precision="FP32" names="1734">
					<dim>1</dim>
					<dim>192</dim>
					<dim>128</dim>
					<dim>160</dim>
				</port>
			</output>
		</layer>
		<layer id="186" name="20058" type="Const" version="opset1">
			<data element_type="f32" shape="192, 1, 1, 5, 5" offset="324232" size="19200"/>
			<output>
				<port id="0" precision="FP32" names="20058">
					<dim>192</dim>
					<dim>1</dim>
					<dim>1</dim>
					<dim>5</dim>
					<dim>5</dim>
				</port>
			</output>
		</layer>
		<layer id="187" name="Conv_178/WithoutBiases" type="GroupConvolution" version="opset1">
			<data strides="2, 2" pads_begin="2, 2" pads_end="2, 2" dilations="1, 1" auto_pad="explicit"/>
			<input>
				<port id="0" precision="FP32">
					<dim>1</dim>
					<dim>192</dim>
					<dim>128</dim>
					<dim>160</dim>
				</port>
				<port id="1" precision="FP32">
					<dim>192</dim>
					<dim>1</dim>
					<dim>1</dim>
					<dim>5</dim>
					<dim>5</dim>
				</port>
			</input>
			<output>
				<port id="2" precision="FP32">
					<dim>1</dim>
					<dim>192</dim>
					<dim>64</dim>
					<dim>80</dim>
				</port>
			</output>
		</layer>
		<layer id="188" name="Conv_178/Dims21686" type="Const" version="opset1">
			<data element_type="f32" shape="1, 192, 1, 1" offset="343432" size="768"/>
			<output>
				<port id="0" precision="FP32">
					<dim>1</dim>
					<dim>192</dim>
					<dim>1</dim>
					<dim>1</dim>
				</port>
			</output>
		</layer>
		<layer id="189" name="Conv_178" type="Add" version="opset1">
			<data auto_broadcast="numpy"/>
			<input>
				<port id="0" precision="FP32">
					<dim>1</dim>
					<dim>192</dim>
					<dim>64</dim>
					<dim>80</dim>
				</port>
				<port id="1" precision="FP32">
					<dim>1</dim>
					<dim>192</dim>
					<dim>1</dim>
					<dim>1</dim>
				</port>
			</input>
			<output>
				<port id="2" precision="FP32" names="20057">
					<dim>1</dim>
					<dim>192</dim>
					<dim>64</dim>
					<dim>80</dim>
				</port>
			</output>
		</layer>
		<layer id="190" name="Mul_180" type="Swish" version="opset4">
			<input>
				<port id="0" precision="FP32">
					<dim>1</dim>
					<dim>192</dim>
					<dim>64</dim>
					<dim>80</dim>
				</port>
			</input>
			<output>
				<port id="1" precision="FP32" names="1762">
					<dim>1</dim>
					<dim>192</dim>
					<dim>64</dim>
					<dim>80</dim>
				</port>
			</output>
		</layer>
		<layer id="191" name="2483" type="Const" version="opset1">
			<data element_type="i64" shape="" offset="6080" size="8"/>
			<output>
				<port id="0" precision="I64"/>
			</output>
		</layer>
		<layer id="192" name="GlobalAveragePool_181/input_rank/shape_of" type="ShapeOf" version="opset3">
			<data output_type="i64"/>
			<input>
				<port id="0" precision="FP32">
					<dim>1</dim>
					<dim>192</dim>
					<dim>64</dim>
					<dim>80</dim>
				</port>
			</input>
			<output>
				<port id="1" precision="I64">
					<dim>4</dim>
				</port>
			</output>
		</layer>
		<layer id="193" name="GlobalAveragePool_181/input_rank/rank_of" type="ShapeOf" version="opset3">
			<data output_type="i64"/>
			<input>
				<port id="0" precision="I64">
					<dim>4</dim>
				</port>
			</input>
			<output>
				<port id="1" precision="I64">
					<dim>1</dim>
				</port>
			</output>
		</layer>
		<layer id="194" name="GlobalAveragePool_181/input_rank/0d_rank_of/value" type="Const" version="opset1">
			<data element_type="i64" shape="1" offset="6088" size="8"/>
			<output>
				<port id="0" precision="I64">
					<dim>1</dim>
				</port>
			</output>
		</layer>
		<layer id="195" name="GlobalAveragePool_181/input_rank" type="Squeeze" version="opset1">
			<input>
				<port id="0" precision="I64">
					<dim>1</dim>
				</port>
				<port id="1" precision="I64">
					<dim>1</dim>
				</port>
			</input>
			<output>
				<port id="2" precision="I64"/>
			</output>
		</layer>
		<layer id="196" name="2485" type="Const" version="opset1">
			<data element_type="i64" shape="" offset="6096" size="8"/>
			<output>
				<port id="0" precision="I64"/>
			</output>
		</layer>
		<layer id="197" name="GlobalAveragePool_181/global_pooling_reduce_axis" type="Range" version="opset4">
			<data output_type="i64"/>
			<input>
				<port id="0" precision="I64"/>
				<port id="1" precision="I64"/>
				<port id="2" precision="I64"/>
			</input>
			<output>
				<port id="3" precision="I64">
					<dim>2</dim>
				</port>
			</output>
		</layer>
		<layer id="198" name="GlobalAveragePool_181/reduce" type="ReduceMean" version="opset1">
			<data keep_dims="true"/>
			<input>
				<port id="0" precision="FP32">
					<dim>1</dim>
					<dim>192</dim>
					<dim>64</dim>
					<dim>80</dim>
				</port>
				<port id="1" precision="I64">
					<dim>2</dim>
				</port>
			</input>
			<output>
				<port id="2" precision="FP32" names="1763">
					<dim>1</dim>
					<dim>192</dim>
					<dim>1</dim>
					<dim>1</dim>
				</port>
			</output>
		</layer>
		<layer id="199" name="encoder._blocks.5._se_reduce.weight" type="Const" version="opset1">
			<data element_type="f32" shape="8, 192, 1, 1" offset="344200" size="6144"/>
			<output>
				<port id="0" precision="FP32" names="encoder._blocks.5._se_reduce.weight">
					<dim>8</dim>
					<dim>192</dim>
					<dim>1</dim>
					<dim>1</dim>
				</port>
			</output>
		</layer>
		<layer id="200" name="Conv_182/WithoutBiases" type="Convolution" version="opset1">
			<data strides="1, 1" dilations="1, 1" pads_begin="0, 0" pads_end="0, 0" auto_pad="explicit"/>
			<input>
				<port id="0" precision="FP32">
					<dim>1</dim>
					<dim>192</dim>
					<dim>1</dim>
					<dim>1</dim>
				</port>
				<port id="1" precision="FP32">
					<dim>8</dim>
					<dim>192</dim>
					<dim>1</dim>
					<dim>1</dim>
				</port>
			</input>
			<output>
				<port id="2" precision="FP32">
					<dim>1</dim>
					<dim>8</dim>
					<dim>1</dim>
					<dim>1</dim>
				</port>
			</output>
		</layer>
		<layer id="201" name="Conv_182/Dims21812" type="Const" version="opset1">
			<data element_type="f32" shape="1, 8, 1, 1" offset="350344" size="32"/>
			<output>
				<port id="0" precision="FP32">
					<dim>1</dim>
					<dim>8</dim>
					<dim>1</dim>
					<dim>1</dim>
				</port>
			</output>
		</layer>
		<layer id="202" name="Conv_182" type="Add" version="opset1">
			<data auto_broadcast="numpy"/>
			<input>
				<port id="0" precision="FP32">
					<dim>1</dim>
					<dim>8</dim>
					<dim>1</dim>
					<dim>1</dim>
				</port>
				<port id="1" precision="FP32">
					<dim>1</dim>
					<dim>8</dim>
					<dim>1</dim>
					<dim>1</dim>
				</port>
			</input>
			<output>
				<port id="2" precision="FP32" names="1764">
					<dim>1</dim>
					<dim>8</dim>
					<dim>1</dim>
					<dim>1</dim>
				</port>
			</output>
		</layer>
		<layer id="203" name="Mul_184" type="Swish" version="opset4">
			<input>
				<port id="0" precision="FP32">
					<dim>1</dim>
					<dim>8</dim>
					<dim>1</dim>
					<dim>1</dim>
				</port>
			</input>
			<output>
				<port id="1" precision="FP32" names="1766">
					<dim>1</dim>
					<dim>8</dim>
					<dim>1</dim>
					<dim>1</dim>
				</port>
			</output>
		</layer>
		<layer id="204" name="encoder._blocks.5._se_expand.weight" type="Const" version="opset1">
			<data element_type="f32" shape="192, 8, 1, 1" offset="350376" size="6144"/>
			<output>
				<port id="0" precision="FP32" names="encoder._blocks.5._se_expand.weight">
					<dim>192</dim>
					<dim>8</dim>
					<dim>1</dim>
					<dim>1</dim>
				</port>
			</output>
		</layer>
		<layer id="205" name="Conv_185/WithoutBiases" type="Convolution" version="opset1">
			<data strides="1, 1" dilations="1, 1" pads_begin="0, 0" pads_end="0, 0" auto_pad="explicit"/>
			<input>
				<port id="0" precision="FP32">
					<dim>1</dim>
					<dim>8</dim>
					<dim>1</dim>
					<dim>1</dim>
				</port>
				<port id="1" precision="FP32">
					<dim>192</dim>
					<dim>8</dim>
					<dim>1</dim>
					<dim>1</dim>
				</port>
			</input>
			<output>
				<port id="2" precision="FP32">
					<dim>1</dim>
					<dim>192</dim>
					<dim>1</dim>
					<dim>1</dim>
				</port>
			</output>
		</layer>
		<layer id="206" name="Conv_185/Dims21740" type="Const" version="opset1">
			<data element_type="f32" shape="1, 192, 1, 1" offset="356520" size="768"/>
			<output>
				<port id="0" precision="FP32">
					<dim>1</dim>
					<dim>192</dim>
					<dim>1</dim>
					<dim>1</dim>
				</port>
			</output>
		</layer>
		<layer id="207" name="Conv_185" type="Add" version="opset1">
			<data auto_broadcast="numpy"/>
			<input>
				<port id="0" precision="FP32">
					<dim>1</dim>
					<dim>192</dim>
					<dim>1</dim>
					<dim>1</dim>
				</port>
				<port id="1" precision="FP32">
					<dim>1</dim>
					<dim>192</dim>
					<dim>1</dim>
					<dim>1</dim>
				</port>
			</input>
			<output>
				<port id="2" precision="FP32" names="1767">
					<dim>1</dim>
					<dim>192</dim>
					<dim>1</dim>
					<dim>1</dim>
				</port>
			</output>
		</layer>
		<layer id="208" name="Sigmoid_186" type="Sigmoid" version="opset1">
			<input>
				<port id="0" precision="FP32">
					<dim>1</dim>
					<dim>192</dim>
					<dim>1</dim>
					<dim>1</dim>
				</port>
			</input>
			<output>
				<port id="1" precision="FP32" names="1768">
					<dim>1</dim>
					<dim>192</dim>
					<dim>1</dim>
					<dim>1</dim>
				</port>
			</output>
		</layer>
		<layer id="209" name="Mul_187" type="Multiply" version="opset1">
			<data auto_broadcast="numpy"/>
			<input>
				<port id="0" precision="FP32">
					<dim>1</dim>
					<dim>192</dim>
					<dim>1</dim>
					<dim>1</dim>
				</port>
				<port id="1" precision="FP32">
					<dim>1</dim>
					<dim>192</dim>
					<dim>64</dim>
					<dim>80</dim>
				</port>
			</input>
			<output>
				<port id="2" precision="FP32" names="1769">
					<dim>1</dim>
					<dim>192</dim>
					<dim>64</dim>
					<dim>80</dim>
				</port>
			</output>
		</layer>
		<layer id="210" name="20061" type="Const" version="opset1">
			<data element_type="f32" shape="48, 192, 1, 1" offset="357288" size="36864"/>
			<output>
				<port id="0" precision="FP32" names="20061">
					<dim>48</dim>
					<dim>192</dim>
					<dim>1</dim>
					<dim>1</dim>
				</port>
			</output>
		</layer>
		<layer id="211" name="Conv_188/WithoutBiases" type="Convolution" version="opset1">
			<data strides="1, 1" dilations="1, 1" pads_begin="0, 0" pads_end="0, 0" auto_pad="explicit"/>
			<input>
				<port id="0" precision="FP32">
					<dim>1</dim>
					<dim>192</dim>
					<dim>64</dim>
					<dim>80</dim>
				</port>
				<port id="1" precision="FP32">
					<dim>48</dim>
					<dim>192</dim>
					<dim>1</dim>
					<dim>1</dim>
				</port>
			</input>
			<output>
				<port id="2" precision="FP32">
					<dim>1</dim>
					<dim>48</dim>
					<dim>64</dim>
					<dim>80</dim>
				</port>
			</output>
		</layer>
		<layer id="212" name="Conv_188/Dims20966" type="Const" version="opset1">
			<data element_type="f32" shape="1, 48, 1, 1" offset="394152" size="192"/>
			<output>
				<port id="0" precision="FP32">
					<dim>1</dim>
					<dim>48</dim>
					<dim>1</dim>
					<dim>1</dim>
				</port>
			</output>
		</layer>
		<layer id="213" name="Conv_188" type="Add" version="opset1">
			<data auto_broadcast="numpy"/>
			<input>
				<port id="0" precision="FP32">
					<dim>1</dim>
					<dim>48</dim>
					<dim>64</dim>
					<dim>80</dim>
				</port>
				<port id="1" precision="FP32">
					<dim>1</dim>
					<dim>48</dim>
					<dim>1</dim>
					<dim>1</dim>
				</port>
			</input>
			<output>
				<port id="2" precision="FP32" names="20060">
					<dim>1</dim>
					<dim>48</dim>
					<dim>64</dim>
					<dim>80</dim>
				</port>
			</output>
		</layer>
		<layer id="214" name="20064" type="Const" version="opset1">
			<data element_type="f32" shape="288, 48, 1, 1" offset="394344" size="55296"/>
			<output>
				<port id="0" precision="FP32" names="20064">
					<dim>288</dim>
					<dim>48</dim>
					<dim>1</dim>
					<dim>1</dim>
				</port>
			</output>
		</layer>
		<layer id="215" name="Conv_189/WithoutBiases" type="Convolution" version="opset1">
			<data strides="1, 1" dilations="1, 1" pads_begin="0, 0" pads_end="0, 0" auto_pad="explicit"/>
			<input>
				<port id="0" precision="FP32">
					<dim>1</dim>
					<dim>48</dim>
					<dim>64</dim>
					<dim>80</dim>
				</port>
				<port id="1" precision="FP32">
					<dim>288</dim>
					<dim>48</dim>
					<dim>1</dim>
					<dim>1</dim>
				</port>
			</input>
			<output>
				<port id="2" precision="FP32">
					<dim>1</dim>
					<dim>288</dim>
					<dim>64</dim>
					<dim>80</dim>
				</port>
			</output>
		</layer>
		<layer id="216" name="Conv_189/Dims22208" type="Const" version="opset1">
			<data element_type="f32" shape="1, 288, 1, 1" offset="449640" size="1152"/>
			<output>
				<port id="0" precision="FP32">
					<dim>1</dim>
					<dim>288</dim>
					<dim>1</dim>
					<dim>1</dim>
				</port>
			</output>
		</layer>
		<layer id="217" name="Conv_189" type="Add" version="opset1">
			<data auto_broadcast="numpy"/>
			<input>
				<port id="0" precision="FP32">
					<dim>1</dim>
					<dim>288</dim>
					<dim>64</dim>
					<dim>80</dim>
				</port>
				<port id="1" precision="FP32">
					<dim>1</dim>
					<dim>288</dim>
					<dim>1</dim>
					<dim>1</dim>
				</port>
			</input>
			<output>
				<port id="2" precision="FP32" names="20063">
					<dim>1</dim>
					<dim>288</dim>
					<dim>64</dim>
					<dim>80</dim>
				</port>
			</output>
		</layer>
		<layer id="218" name="Mul_191" type="Swish" version="opset4">
			<input>
				<port id="0" precision="FP32">
					<dim>1</dim>
					<dim>288</dim>
					<dim>64</dim>
					<dim>80</dim>
				</port>
			</input>
			<output>
				<port id="1" precision="FP32" names="1775">
					<dim>1</dim>
					<dim>288</dim>
					<dim>64</dim>
					<dim>80</dim>
				</port>
			</output>
		</layer>
		<layer id="219" name="20067" type="Const" version="opset1">
			<data element_type="f32" shape="288, 1, 1, 5, 5" offset="450792" size="28800"/>
			<output>
				<port id="0" precision="FP32" names="20067">
					<dim>288</dim>
					<dim>1</dim>
					<dim>1</dim>
					<dim>5</dim>
					<dim>5</dim>
				</port>
			</output>
		</layer>
		<layer id="220" name="Conv_207/WithoutBiases" type="GroupConvolution" version="opset1">
			<data strides="1, 1" pads_begin="2, 2" pads_end="2, 2" dilations="1, 1" auto_pad="explicit"/>
			<input>
				<port id="0" precision="FP32">
					<dim>1</dim>
					<dim>288</dim>
					<dim>64</dim>
					<dim>80</dim>
				</port>
				<port id="1" precision="FP32">
					<dim>288</dim>
					<dim>1</dim>
					<dim>1</dim>
					<dim>5</dim>
					<dim>5</dim>
				</port>
			</input>
			<output>
				<port id="2" precision="FP32">
					<dim>1</dim>
					<dim>288</dim>
					<dim>64</dim>
					<dim>80</dim>
				</port>
			</output>
		</layer>
		<layer id="221" name="Conv_207/Dims22286" type="Const" version="opset1">
			<data element_type="f32" shape="1, 288, 1, 1" offset="479592" size="1152"/>
			<output>
				<port id="0" precision="FP32">
					<dim>1</dim>
					<dim>288</dim>
					<dim>1</dim>
					<dim>1</dim>
				</port>
			</output>
		</layer>
		<layer id="222" name="Conv_207" type="Add" version="opset1">
			<data auto_broadcast="numpy"/>
			<input>
				<port id="0" precision="FP32">
					<dim>1</dim>
					<dim>288</dim>
					<dim>64</dim>
					<dim>80</dim>
				</port>
				<port id="1" precision="FP32">
					<dim>1</dim>
					<dim>288</dim>
					<dim>1</dim>
					<dim>1</dim>
				</port>
			</input>
			<output>
				<port id="2" precision="FP32" names="20066">
					<dim>1</dim>
					<dim>288</dim>
					<dim>64</dim>
					<dim>80</dim>
				</port>
			</output>
		</layer>
		<layer id="223" name="Mul_209" type="Swish" version="opset4">
			<input>
				<port id="0" precision="FP32">
					<dim>1</dim>
					<dim>288</dim>
					<dim>64</dim>
					<dim>80</dim>
				</port>
			</input>
			<output>
				<port id="1" precision="FP32" names="1803">
					<dim>1</dim>
					<dim>288</dim>
					<dim>64</dim>
					<dim>80</dim>
				</port>
			</output>
		</layer>
		<layer id="224" name="2488" type="Const" version="opset1">
			<data element_type="i64" shape="" offset="6080" size="8"/>
			<output>
				<port id="0" precision="I64"/>
			</output>
		</layer>
		<layer id="225" name="GlobalAveragePool_210/input_rank/shape_of" type="ShapeOf" version="opset3">
			<data output_type="i64"/>
			<input>
				<port id="0" precision="FP32">
					<dim>1</dim>
					<dim>288</dim>
					<dim>64</dim>
					<dim>80</dim>
				</port>
			</input>
			<output>
				<port id="1" precision="I64">
					<dim>4</dim>
				</port>
			</output>
		</layer>
		<layer id="226" name="GlobalAveragePool_210/input_rank/rank_of" type="ShapeOf" version="opset3">
			<data output_type="i64"/>
			<input>
				<port id="0" precision="I64">
					<dim>4</dim>
				</port>
			</input>
			<output>
				<port id="1" precision="I64">
					<dim>1</dim>
				</port>
			</output>
		</layer>
		<layer id="227" name="GlobalAveragePool_210/input_rank/0d_rank_of/value" type="Const" version="opset1">
			<data element_type="i64" shape="1" offset="6088" size="8"/>
			<output>
				<port id="0" precision="I64">
					<dim>1</dim>
				</port>
			</output>
		</layer>
		<layer id="228" name="GlobalAveragePool_210/input_rank" type="Squeeze" version="opset1">
			<input>
				<port id="0" precision="I64">
					<dim>1</dim>
				</port>
				<port id="1" precision="I64">
					<dim>1</dim>
				</port>
			</input>
			<output>
				<port id="2" precision="I64"/>
			</output>
		</layer>
		<layer id="229" name="2490" type="Const" version="opset1">
			<data element_type="i64" shape="" offset="6096" size="8"/>
			<output>
				<port id="0" precision="I64"/>
			</output>
		</layer>
		<layer id="230" name="GlobalAveragePool_210/global_pooling_reduce_axis" type="Range" version="opset4">
			<data output_type="i64"/>
			<input>
				<port id="0" precision="I64"/>
				<port id="1" precision="I64"/>
				<port id="2" precision="I64"/>
			</input>
			<output>
				<port id="3" precision="I64">
					<dim>2</dim>
				</port>
			</output>
		</layer>
		<layer id="231" name="GlobalAveragePool_210/reduce" type="ReduceMean" version="opset1">
			<data keep_dims="true"/>
			<input>
				<port id="0" precision="FP32">
					<dim>1</dim>
					<dim>288</dim>
					<dim>64</dim>
					<dim>80</dim>
				</port>
				<port id="1" precision="I64">
					<dim>2</dim>
				</port>
			</input>
			<output>
				<port id="2" precision="FP32" names="1804">
					<dim>1</dim>
					<dim>288</dim>
					<dim>1</dim>
					<dim>1</dim>
				</port>
			</output>
		</layer>
		<layer id="232" name="encoder._blocks.6._se_reduce.weight" type="Const" version="opset1">
			<data element_type="f32" shape="12, 288, 1, 1" offset="480744" size="13824"/>
			<output>
				<port id="0" precision="FP32" names="encoder._blocks.6._se_reduce.weight">
					<dim>12</dim>
					<dim>288</dim>
					<dim>1</dim>
					<dim>1</dim>
				</port>
			</output>
		</layer>
		<layer id="233" name="Conv_211/WithoutBiases" type="Convolution" version="opset1">
			<data strides="1, 1" dilations="1, 1" pads_begin="0, 0" pads_end="0, 0" auto_pad="explicit"/>
			<input>
				<port id="0" precision="FP32">
					<dim>1</dim>
					<dim>288</dim>
					<dim>1</dim>
					<dim>1</dim>
				</port>
				<port id="1" precision="FP32">
					<dim>12</dim>
					<dim>288</dim>
					<dim>1</dim>
					<dim>1</dim>
				</port>
			</input>
			<output>
				<port id="2" precision="FP32">
					<dim>1</dim>
					<dim>12</dim>
					<dim>1</dim>
					<dim>1</dim>
				</port>
			</output>
		</layer>
		<layer id="234" name="Conv_211/Dims22274" type="Const" version="opset1">
			<data element_type="f32" shape="1, 12, 1, 1" offset="494568" size="48"/>
			<output>
				<port id="0" precision="FP32">
					<dim>1</dim>
					<dim>12</dim>
					<dim>1</dim>
					<dim>1</dim>
				</port>
			</output>
		</layer>
		<layer id="235" name="Conv_211" type="Add" version="opset1">
			<data auto_broadcast="numpy"/>
			<input>
				<port id="0" precision="FP32">
					<dim>1</dim>
					<dim>12</dim>
					<dim>1</dim>
					<dim>1</dim>
				</port>
				<port id="1" precision="FP32">
					<dim>1</dim>
					<dim>12</dim>
					<dim>1</dim>
					<dim>1</dim>
				</port>
			</input>
			<output>
				<port id="2" precision="FP32" names="1805">
					<dim>1</dim>
					<dim>12</dim>
					<dim>1</dim>
					<dim>1</dim>
				</port>
			</output>
		</layer>
		<layer id="236" name="Mul_213" type="Swish" version="opset4">
			<input>
				<port id="0" precision="FP32">
					<dim>1</dim>
					<dim>12</dim>
					<dim>1</dim>
					<dim>1</dim>
				</port>
			</input>
			<output>
				<port id="1" precision="FP32" names="1807">
					<dim>1</dim>
					<dim>12</dim>
					<dim>1</dim>
					<dim>1</dim>
				</port>
			</output>
		</layer>
		<layer id="237" name="encoder._blocks.6._se_expand.weight" type="Const" version="opset1">
			<data element_type="f32" shape="288, 12, 1, 1" offset="494616" size="13824"/>
			<output>
				<port id="0" precision="FP32" names="encoder._blocks.6._se_expand.weight">
					<dim>288</dim>
					<dim>12</dim>
					<dim>1</dim>
					<dim>1</dim>
				</port>
			</output>
		</layer>
		<layer id="238" name="Conv_214/WithoutBiases" type="Convolution" version="opset1">
			<data strides="1, 1" dilations="1, 1" pads_begin="0, 0" pads_end="0, 0" auto_pad="explicit"/>
			<input>
				<port id="0" precision="FP32">
					<dim>1</dim>
					<dim>12</dim>
					<dim>1</dim>
					<dim>1</dim>
				</port>
				<port id="1" precision="FP32">
					<dim>288</dim>
					<dim>12</dim>
					<dim>1</dim>
					<dim>1</dim>
				</port>
			</input>
			<output>
				<port id="2" precision="FP32">
					<dim>1</dim>
					<dim>288</dim>
					<dim>1</dim>
					<dim>1</dim>
				</port>
			</output>
		</layer>
		<layer id="239" name="Conv_214/Dims21008" type="Const" version="opset1">
			<data element_type="f32" shape="1, 288, 1, 1" offset="508440" size="1152"/>
			<output>
				<port id="0" precision="FP32">
					<dim>1</dim>
					<dim>288</dim>
					<dim>1</dim>
					<dim>1</dim>
				</port>
			</output>
		</layer>
		<layer id="240" name="Conv_214" type="Add" version="opset1">
			<data auto_broadcast="numpy"/>
			<input>
				<port id="0" precision="FP32">
					<dim>1</dim>
					<dim>288</dim>
					<dim>1</dim>
					<dim>1</dim>
				</port>
				<port id="1" precision="FP32">
					<dim>1</dim>
					<dim>288</dim>
					<dim>1</dim>
					<dim>1</dim>
				</port>
			</input>
			<output>
				<port id="2" precision="FP32" names="1808">
					<dim>1</dim>
					<dim>288</dim>
					<dim>1</dim>
					<dim>1</dim>
				</port>
			</output>
		</layer>
		<layer id="241" name="Sigmoid_215" type="Sigmoid" version="opset1">
			<input>
				<port id="0" precision="FP32">
					<dim>1</dim>
					<dim>288</dim>
					<dim>1</dim>
					<dim>1</dim>
				</port>
			</input>
			<output>
				<port id="1" precision="FP32" names="1809">
					<dim>1</dim>
					<dim>288</dim>
					<dim>1</dim>
					<dim>1</dim>
				</port>
			</output>
		</layer>
		<layer id="242" name="Mul_216" type="Multiply" version="opset1">
			<data auto_broadcast="numpy"/>
			<input>
				<port id="0" precision="FP32">
					<dim>1</dim>
					<dim>288</dim>
					<dim>1</dim>
					<dim>1</dim>
				</port>
				<port id="1" precision="FP32">
					<dim>1</dim>
					<dim>288</dim>
					<dim>64</dim>
					<dim>80</dim>
				</port>
			</input>
			<output>
				<port id="2" precision="FP32" names="1810">
					<dim>1</dim>
					<dim>288</dim>
					<dim>64</dim>
					<dim>80</dim>
				</port>
			</output>
		</layer>
		<layer id="243" name="20070" type="Const" version="opset1">
			<data element_type="f32" shape="48, 288, 1, 1" offset="509592" size="55296"/>
			<output>
				<port id="0" precision="FP32" names="20070">
					<dim>48</dim>
					<dim>288</dim>
					<dim>1</dim>
					<dim>1</dim>
				</port>
			</output>
		</layer>
		<layer id="244" name="Conv_217/WithoutBiases" type="Convolution" version="opset1">
			<data strides="1, 1" dilations="1, 1" pads_begin="0, 0" pads_end="0, 0" auto_pad="explicit"/>
			<input>
				<port id="0" precision="FP32">
					<dim>1</dim>
					<dim>288</dim>
					<dim>64</dim>
					<dim>80</dim>
				</port>
				<port id="1" precision="FP32">
					<dim>48</dim>
					<dim>288</dim>
					<dim>1</dim>
					<dim>1</dim>
				</port>
			</input>
			<output>
				<port id="2" precision="FP32">
					<dim>1</dim>
					<dim>48</dim>
					<dim>64</dim>
					<dim>80</dim>
				</port>
			</output>
		</layer>
		<layer id="245" name="Conv_217/Dims21224" type="Const" version="opset1">
			<data element_type="f32" shape="1, 48, 1, 1" offset="564888" size="192"/>
			<output>
				<port id="0" precision="FP32">
					<dim>1</dim>
					<dim>48</dim>
					<dim>1</dim>
					<dim>1</dim>
				</port>
			</output>
		</layer>
		<layer id="246" name="Conv_217" type="Add" version="opset1">
			<data auto_broadcast="numpy"/>
			<input>
				<port id="0" precision="FP32">
					<dim>1</dim>
					<dim>48</dim>
					<dim>64</dim>
					<dim>80</dim>
				</port>
				<port id="1" precision="FP32">
					<dim>1</dim>
					<dim>48</dim>
					<dim>1</dim>
					<dim>1</dim>
				</port>
			</input>
			<output>
				<port id="2" precision="FP32" names="20069">
					<dim>1</dim>
					<dim>48</dim>
					<dim>64</dim>
					<dim>80</dim>
				</port>
			</output>
		</layer>
		<layer id="247" name="Add_218" type="Add" version="opset1">
			<data auto_broadcast="numpy"/>
			<input>
				<port id="0" precision="FP32">
					<dim>1</dim>
					<dim>48</dim>
					<dim>64</dim>
					<dim>80</dim>
				</port>
				<port id="1" precision="FP32">
					<dim>1</dim>
					<dim>48</dim>
					<dim>64</dim>
					<dim>80</dim>
				</port>
			</input>
			<output>
				<port id="2" precision="FP32" names="1813">
					<dim>1</dim>
					<dim>48</dim>
					<dim>64</dim>
					<dim>80</dim>
				</port>
			</output>
		</layer>
		<layer id="248" name="20073" type="Const" version="opset1">
			<data element_type="f32" shape="288, 48, 1, 1" offset="565080" size="55296"/>
			<output>
				<port id="0" precision="FP32" names="20073">
					<dim>288</dim>
					<dim>48</dim>
					<dim>1</dim>
					<dim>1</dim>
				</port>
			</output>
		</layer>
		<layer id="249" name="Conv_219/WithoutBiases" type="Convolution" version="opset1">
			<data strides="1, 1" dilations="1, 1" pads_begin="0, 0" pads_end="0, 0" auto_pad="explicit"/>
			<input>
				<port id="0" precision="FP32">
					<dim>1</dim>
					<dim>48</dim>
					<dim>64</dim>
					<dim>80</dim>
				</port>
				<port id="1" precision="FP32">
					<dim>288</dim>
					<dim>48</dim>
					<dim>1</dim>
					<dim>1</dim>
				</port>
			</input>
			<output>
				<port id="2" precision="FP32">
					<dim>1</dim>
					<dim>288</dim>
					<dim>64</dim>
					<dim>80</dim>
				</port>
			</output>
		</layer>
		<layer id="250" name="Conv_219/Dims22154" type="Const" version="opset1">
			<data element_type="f32" shape="1, 288, 1, 1" offset="620376" size="1152"/>
			<output>
				<port id="0" precision="FP32">
					<dim>1</dim>
					<dim>288</dim>
					<dim>1</dim>
					<dim>1</dim>
				</port>
			</output>
		</layer>
		<layer id="251" name="Conv_219" type="Add" version="opset1">
			<data auto_broadcast="numpy"/>
			<input>
				<port id="0" precision="FP32">
					<dim>1</dim>
					<dim>288</dim>
					<dim>64</dim>
					<dim>80</dim>
				</port>
				<port id="1" precision="FP32">
					<dim>1</dim>
					<dim>288</dim>
					<dim>1</dim>
					<dim>1</dim>
				</port>
			</input>
			<output>
				<port id="2" precision="FP32" names="20072">
					<dim>1</dim>
					<dim>288</dim>
					<dim>64</dim>
					<dim>80</dim>
				</port>
			</output>
		</layer>
		<layer id="252" name="Mul_221" type="Swish" version="opset4">
			<input>
				<port id="0" precision="FP32">
					<dim>1</dim>
					<dim>288</dim>
					<dim>64</dim>
					<dim>80</dim>
				</port>
			</input>
			<output>
				<port id="1" precision="FP32" names="1817">
					<dim>1</dim>
					<dim>288</dim>
					<dim>64</dim>
					<dim>80</dim>
				</port>
			</output>
		</layer>
		<layer id="253" name="20076" type="Const" version="opset1">
			<data element_type="f32" shape="288, 1, 1, 5, 5" offset="621528" size="28800"/>
			<output>
				<port id="0" precision="FP32" names="20076">
					<dim>288</dim>
					<dim>1</dim>
					<dim>1</dim>
					<dim>5</dim>
					<dim>5</dim>
				</port>
			</output>
		</layer>
		<layer id="254" name="Conv_237/WithoutBiases" type="GroupConvolution" version="opset1">
			<data strides="1, 1" pads_begin="2, 2" pads_end="2, 2" dilations="1, 1" auto_pad="explicit"/>
			<input>
				<port id="0" precision="FP32">
					<dim>1</dim>
					<dim>288</dim>
					<dim>64</dim>
					<dim>80</dim>
				</port>
				<port id="1" precision="FP32">
					<dim>288</dim>
					<dim>1</dim>
					<dim>1</dim>
					<dim>5</dim>
					<dim>5</dim>
				</port>
			</input>
			<output>
				<port id="2" precision="FP32">
					<dim>1</dim>
					<dim>288</dim>
					<dim>64</dim>
					<dim>80</dim>
				</port>
			</output>
		</layer>
		<layer id="255" name="Conv_237/Dims20960" type="Const" version="opset1">
			<data element_type="f32" shape="1, 288, 1, 1" offset="650328" size="1152"/>
			<output>
				<port id="0" precision="FP32">
					<dim>1</dim>
					<dim>288</dim>
					<dim>1</dim>
					<dim>1</dim>
				</port>
			</output>
		</layer>
		<layer id="256" name="Conv_237" type="Add" version="opset1">
			<data auto_broadcast="numpy"/>
			<input>
				<port id="0" precision="FP32">
					<dim>1</dim>
					<dim>288</dim>
					<dim>64</dim>
					<dim>80</dim>
				</port>
				<port id="1" precision="FP32">
					<dim>1</dim>
					<dim>288</dim>
					<dim>1</dim>
					<dim>1</dim>
				</port>
			</input>
			<output>
				<port id="2" precision="FP32" names="20075">
					<dim>1</dim>
					<dim>288</dim>
					<dim>64</dim>
					<dim>80</dim>
				</port>
			</output>
		</layer>
		<layer id="257" name="Mul_239" type="Swish" version="opset4">
			<input>
				<port id="0" precision="FP32">
					<dim>1</dim>
					<dim>288</dim>
					<dim>64</dim>
					<dim>80</dim>
				</port>
			</input>
			<output>
				<port id="1" precision="FP32" names="1845">
					<dim>1</dim>
					<dim>288</dim>
					<dim>64</dim>
					<dim>80</dim>
				</port>
			</output>
		</layer>
		<layer id="258" name="2493" type="Const" version="opset1">
			<data element_type="i64" shape="" offset="6080" size="8"/>
			<output>
				<port id="0" precision="I64"/>
			</output>
		</layer>
		<layer id="259" name="GlobalAveragePool_240/input_rank/shape_of" type="ShapeOf" version="opset3">
			<data output_type="i64"/>
			<input>
				<port id="0" precision="FP32">
					<dim>1</dim>
					<dim>288</dim>
					<dim>64</dim>
					<dim>80</dim>
				</port>
			</input>
			<output>
				<port id="1" precision="I64">
					<dim>4</dim>
				</port>
			</output>
		</layer>
		<layer id="260" name="GlobalAveragePool_240/input_rank/rank_of" type="ShapeOf" version="opset3">
			<data output_type="i64"/>
			<input>
				<port id="0" precision="I64">
					<dim>4</dim>
				</port>
			</input>
			<output>
				<port id="1" precision="I64">
					<dim>1</dim>
				</port>
			</output>
		</layer>
		<layer id="261" name="GlobalAveragePool_240/input_rank/0d_rank_of/value" type="Const" version="opset1">
			<data element_type="i64" shape="1" offset="6088" size="8"/>
			<output>
				<port id="0" precision="I64">
					<dim>1</dim>
				</port>
			</output>
		</layer>
		<layer id="262" name="GlobalAveragePool_240/input_rank" type="Squeeze" version="opset1">
			<input>
				<port id="0" precision="I64">
					<dim>1</dim>
				</port>
				<port id="1" precision="I64">
					<dim>1</dim>
				</port>
			</input>
			<output>
				<port id="2" precision="I64"/>
			</output>
		</layer>
		<layer id="263" name="2495" type="Const" version="opset1">
			<data element_type="i64" shape="" offset="6096" size="8"/>
			<output>
				<port id="0" precision="I64"/>
			</output>
		</layer>
		<layer id="264" name="GlobalAveragePool_240/global_pooling_reduce_axis" type="Range" version="opset4">
			<data output_type="i64"/>
			<input>
				<port id="0" precision="I64"/>
				<port id="1" precision="I64"/>
				<port id="2" precision="I64"/>
			</input>
			<output>
				<port id="3" precision="I64">
					<dim>2</dim>
				</port>
			</output>
		</layer>
		<layer id="265" name="GlobalAveragePool_240/reduce" type="ReduceMean" version="opset1">
			<data keep_dims="true"/>
			<input>
				<port id="0" precision="FP32">
					<dim>1</dim>
					<dim>288</dim>
					<dim>64</dim>
					<dim>80</dim>
				</port>
				<port id="1" precision="I64">
					<dim>2</dim>
				</port>
			</input>
			<output>
				<port id="2" precision="FP32" names="1846">
					<dim>1</dim>
					<dim>288</dim>
					<dim>1</dim>
					<dim>1</dim>
				</port>
			</output>
		</layer>
		<layer id="266" name="encoder._blocks.7._se_reduce.weight" type="Const" version="opset1">
			<data element_type="f32" shape="12, 288, 1, 1" offset="651480" size="13824"/>
			<output>
				<port id="0" precision="FP32" names="encoder._blocks.7._se_reduce.weight">
					<dim>12</dim>
					<dim>288</dim>
					<dim>1</dim>
					<dim>1</dim>
				</port>
			</output>
		</layer>
		<layer id="267" name="Conv_241/WithoutBiases" type="Convolution" version="opset1">
			<data strides="1, 1" dilations="1, 1" pads_begin="0, 0" pads_end="0, 0" auto_pad="explicit"/>
			<input>
				<port id="0" precision="FP32">
					<dim>1</dim>
					<dim>288</dim>
					<dim>1</dim>
					<dim>1</dim>
				</port>
				<port id="1" precision="FP32">
					<dim>12</dim>
					<dim>288</dim>
					<dim>1</dim>
					<dim>1</dim>
				</port>
			</input>
			<output>
				<port id="2" precision="FP32">
					<dim>1</dim>
					<dim>12</dim>
					<dim>1</dim>
					<dim>1</dim>
				</port>
			</output>
		</layer>
		<layer id="268" name="Conv_241/Dims21002" type="Const" version="opset1">
			<data element_type="f32" shape="1, 12, 1, 1" offset="665304" size="48"/>
			<output>
				<port id="0" precision="FP32">
					<dim>1</dim>
					<dim>12</dim>
					<dim>1</dim>
					<dim>1</dim>
				</port>
			</output>
		</layer>
		<layer id="269" name="Conv_241" type="Add" version="opset1">
			<data auto_broadcast="numpy"/>
			<input>
				<port id="0" precision="FP32">
					<dim>1</dim>
					<dim>12</dim>
					<dim>1</dim>
					<dim>1</dim>
				</port>
				<port id="1" precision="FP32">
					<dim>1</dim>
					<dim>12</dim>
					<dim>1</dim>
					<dim>1</dim>
				</port>
			</input>
			<output>
				<port id="2" precision="FP32" names="1847">
					<dim>1</dim>
					<dim>12</dim>
					<dim>1</dim>
					<dim>1</dim>
				</port>
			</output>
		</layer>
		<layer id="270" name="Mul_243" type="Swish" version="opset4">
			<input>
				<port id="0" precision="FP32">
					<dim>1</dim>
					<dim>12</dim>
					<dim>1</dim>
					<dim>1</dim>
				</port>
			</input>
			<output>
				<port id="1" precision="FP32" names="1849">
					<dim>1</dim>
					<dim>12</dim>
					<dim>1</dim>
					<dim>1</dim>
				</port>
			</output>
		</layer>
		<layer id="271" name="encoder._blocks.7._se_expand.weight" type="Const" version="opset1">
			<data element_type="f32" shape="288, 12, 1, 1" offset="665352" size="13824"/>
			<output>
				<port id="0" precision="FP32" names="encoder._blocks.7._se_expand.weight">
					<dim>288</dim>
					<dim>12</dim>
					<dim>1</dim>
					<dim>1</dim>
				</port>
			</output>
		</layer>
		<layer id="272" name="Conv_244/WithoutBiases" type="Convolution" version="opset1">
			<data strides="1, 1" dilations="1, 1" pads_begin="0, 0" pads_end="0, 0" auto_pad="explicit"/>
			<input>
				<port id="0" precision="FP32">
					<dim>1</dim>
					<dim>12</dim>
					<dim>1</dim>
					<dim>1</dim>
				</port>
				<port id="1" precision="FP32">
					<dim>288</dim>
					<dim>12</dim>
					<dim>1</dim>
					<dim>1</dim>
				</port>
			</input>
			<output>
				<port id="2" precision="FP32">
					<dim>1</dim>
					<dim>288</dim>
					<dim>1</dim>
					<dim>1</dim>
				</port>
			</output>
		</layer>
		<layer id="273" name="Conv_244/Dims21116" type="Const" version="opset1">
			<data element_type="f32" shape="1, 288, 1, 1" offset="679176" size="1152"/>
			<output>
				<port id="0" precision="FP32">
					<dim>1</dim>
					<dim>288</dim>
					<dim>1</dim>
					<dim>1</dim>
				</port>
			</output>
		</layer>
		<layer id="274" name="Conv_244" type="Add" version="opset1">
			<data auto_broadcast="numpy"/>
			<input>
				<port id="0" precision="FP32">
					<dim>1</dim>
					<dim>288</dim>
					<dim>1</dim>
					<dim>1</dim>
				</port>
				<port id="1" precision="FP32">
					<dim>1</dim>
					<dim>288</dim>
					<dim>1</dim>
					<dim>1</dim>
				</port>
			</input>
			<output>
				<port id="2" precision="FP32" names="1850">
					<dim>1</dim>
					<dim>288</dim>
					<dim>1</dim>
					<dim>1</dim>
				</port>
			</output>
		</layer>
		<layer id="275" name="Sigmoid_245" type="Sigmoid" version="opset1">
			<input>
				<port id="0" precision="FP32">
					<dim>1</dim>
					<dim>288</dim>
					<dim>1</dim>
					<dim>1</dim>
				</port>
			</input>
			<output>
				<port id="1" precision="FP32" names="1851">
					<dim>1</dim>
					<dim>288</dim>
					<dim>1</dim>
					<dim>1</dim>
				</port>
			</output>
		</layer>
		<layer id="276" name="Mul_246" type="Multiply" version="opset1">
			<data auto_broadcast="numpy"/>
			<input>
				<port id="0" precision="FP32">
					<dim>1</dim>
					<dim>288</dim>
					<dim>1</dim>
					<dim>1</dim>
				</port>
				<port id="1" precision="FP32">
					<dim>1</dim>
					<dim>288</dim>
					<dim>64</dim>
					<dim>80</dim>
				</port>
			</input>
			<output>
				<port id="2" precision="FP32" names="1852">
					<dim>1</dim>
					<dim>288</dim>
					<dim>64</dim>
					<dim>80</dim>
				</port>
			</output>
		</layer>
		<layer id="277" name="20079" type="Const" version="opset1">
			<data element_type="f32" shape="48, 288, 1, 1" offset="680328" size="55296"/>
			<output>
				<port id="0" precision="FP32" names="20079">
					<dim>48</dim>
					<dim>288</dim>
					<dim>1</dim>
					<dim>1</dim>
				</port>
			</output>
		</layer>
		<layer id="278" name="Conv_247/WithoutBiases" type="Convolution" version="opset1">
			<data strides="1, 1" dilations="1, 1" pads_begin="0, 0" pads_end="0, 0" auto_pad="explicit"/>
			<input>
				<port id="0" precision="FP32">
					<dim>1</dim>
					<dim>288</dim>
					<dim>64</dim>
					<dim>80</dim>
				</port>
				<port id="1" precision="FP32">
					<dim>48</dim>
					<dim>288</dim>
					<dim>1</dim>
					<dim>1</dim>
				</port>
			</input>
			<output>
				<port id="2" precision="FP32">
					<dim>1</dim>
					<dim>48</dim>
					<dim>64</dim>
					<dim>80</dim>
				</port>
			</output>
		</layer>
		<layer id="279" name="Conv_247/Dims20942" type="Const" version="opset1">
			<data element_type="f32" shape="1, 48, 1, 1" offset="735624" size="192"/>
			<output>
				<port id="0" precision="FP32">
					<dim>1</dim>
					<dim>48</dim>
					<dim>1</dim>
					<dim>1</dim>
				</port>
			</output>
		</layer>
		<layer id="280" name="Conv_247" type="Add" version="opset1">
			<data auto_broadcast="numpy"/>
			<input>
				<port id="0" precision="FP32">
					<dim>1</dim>
					<dim>48</dim>
					<dim>64</dim>
					<dim>80</dim>
				</port>
				<port id="1" precision="FP32">
					<dim>1</dim>
					<dim>48</dim>
					<dim>1</dim>
					<dim>1</dim>
				</port>
			</input>
			<output>
				<port id="2" precision="FP32" names="20078">
					<dim>1</dim>
					<dim>48</dim>
					<dim>64</dim>
					<dim>80</dim>
				</port>
			</output>
		</layer>
		<layer id="281" name="Add_248" type="Add" version="opset1">
			<data auto_broadcast="numpy"/>
			<input>
				<port id="0" precision="FP32">
					<dim>1</dim>
					<dim>48</dim>
					<dim>64</dim>
					<dim>80</dim>
				</port>
				<port id="1" precision="FP32">
					<dim>1</dim>
					<dim>48</dim>
					<dim>64</dim>
					<dim>80</dim>
				</port>
			</input>
			<output>
				<port id="2" precision="FP32" names="1855">
					<dim>1</dim>
					<dim>48</dim>
					<dim>64</dim>
					<dim>80</dim>
				</port>
			</output>
		</layer>
		<layer id="282" name="20082" type="Const" version="opset1">
			<data element_type="f32" shape="288, 48, 1, 1" offset="735816" size="55296"/>
			<output>
				<port id="0" precision="FP32" names="20082">
					<dim>288</dim>
					<dim>48</dim>
					<dim>1</dim>
					<dim>1</dim>
				</port>
			</output>
		</layer>
		<layer id="283" name="Conv_249/WithoutBiases" type="Convolution" version="opset1">
			<data strides="1, 1" dilations="1, 1" pads_begin="0, 0" pads_end="0, 0" auto_pad="explicit"/>
			<input>
				<port id="0" precision="FP32">
					<dim>1</dim>
					<dim>48</dim>
					<dim>64</dim>
					<dim>80</dim>
				</port>
				<port id="1" precision="FP32">
					<dim>288</dim>
					<dim>48</dim>
					<dim>1</dim>
					<dim>1</dim>
				</port>
			</input>
			<output>
				<port id="2" precision="FP32">
					<dim>1</dim>
					<dim>288</dim>
					<dim>64</dim>
					<dim>80</dim>
				</port>
			</output>
		</layer>
		<layer id="284" name="Conv_249/Dims21134" type="Const" version="opset1">
			<data element_type="f32" shape="1, 288, 1, 1" offset="791112" size="1152"/>
			<output>
				<port id="0" precision="FP32">
					<dim>1</dim>
					<dim>288</dim>
					<dim>1</dim>
					<dim>1</dim>
				</port>
			</output>
		</layer>
		<layer id="285" name="Conv_249" type="Add" version="opset1">
			<data auto_broadcast="numpy"/>
			<input>
				<port id="0" precision="FP32">
					<dim>1</dim>
					<dim>288</dim>
					<dim>64</dim>
					<dim>80</dim>
				</port>
				<port id="1" precision="FP32">
					<dim>1</dim>
					<dim>288</dim>
					<dim>1</dim>
					<dim>1</dim>
				</port>
			</input>
			<output>
				<port id="2" precision="FP32" names="20081">
					<dim>1</dim>
					<dim>288</dim>
					<dim>64</dim>
					<dim>80</dim>
				</port>
			</output>
		</layer>
		<layer id="286" name="Mul_251" type="Swish" version="opset4">
			<input>
				<port id="0" precision="FP32">
					<dim>1</dim>
					<dim>288</dim>
					<dim>64</dim>
					<dim>80</dim>
				</port>
			</input>
			<output>
				<port id="1" precision="FP32" names="1859">
					<dim>1</dim>
					<dim>288</dim>
					<dim>64</dim>
					<dim>80</dim>
				</port>
			</output>
		</layer>
		<layer id="287" name="20085" type="Const" version="opset1">
			<data element_type="f32" shape="288, 1, 1, 3, 3" offset="792264" size="10368"/>
			<output>
				<port id="0" precision="FP32" names="20085">
					<dim>288</dim>
					<dim>1</dim>
					<dim>1</dim>
					<dim>3</dim>
					<dim>3</dim>
				</port>
			</output>
		</layer>
		<layer id="288" name="Conv_267/WithoutBiases" type="GroupConvolution" version="opset1">
			<data strides="2, 2" pads_begin="0, 0" pads_end="1, 1" dilations="1, 1" auto_pad="explicit"/>
			<input>
				<port id="0" precision="FP32">
					<dim>1</dim>
					<dim>288</dim>
					<dim>64</dim>
					<dim>80</dim>
				</port>
				<port id="1" precision="FP32">
					<dim>288</dim>
					<dim>1</dim>
					<dim>1</dim>
					<dim>3</dim>
					<dim>3</dim>
				</port>
			</input>
			<output>
				<port id="2" precision="FP32">
					<dim>1</dim>
					<dim>288</dim>
					<dim>32</dim>
					<dim>40</dim>
				</port>
			</output>
		</layer>
		<layer id="289" name="Conv_267/Dims22040" type="Const" version="opset1">
			<data element_type="f32" shape="1, 288, 1, 1" offset="802632" size="1152"/>
			<output>
				<port id="0" precision="FP32">
					<dim>1</dim>
					<dim>288</dim>
					<dim>1</dim>
					<dim>1</dim>
				</port>
			</output>
		</layer>
		<layer id="290" name="Conv_267" type="Add" version="opset1">
			<data auto_broadcast="numpy"/>
			<input>
				<port id="0" precision="FP32">
					<dim>1</dim>
					<dim>288</dim>
					<dim>32</dim>
					<dim>40</dim>
				</port>
				<port id="1" precision="FP32">
					<dim>1</dim>
					<dim>288</dim>
					<dim>1</dim>
					<dim>1</dim>
				</port>
			</input>
			<output>
				<port id="2" precision="FP32" names="20084">
					<dim>1</dim>
					<dim>288</dim>
					<dim>32</dim>
					<dim>40</dim>
				</port>
			</output>
		</layer>
		<layer id="291" name="Mul_269" type="Swish" version="opset4">
			<input>
				<port id="0" precision="FP32">
					<dim>1</dim>
					<dim>288</dim>
					<dim>32</dim>
					<dim>40</dim>
				</port>
			</input>
			<output>
				<port id="1" precision="FP32" names="1887">
					<dim>1</dim>
					<dim>288</dim>
					<dim>32</dim>
					<dim>40</dim>
				</port>
			</output>
		</layer>
		<layer id="292" name="2498" type="Const" version="opset1">
			<data element_type="i64" shape="" offset="6080" size="8"/>
			<output>
				<port id="0" precision="I64"/>
			</output>
		</layer>
		<layer id="293" name="GlobalAveragePool_270/input_rank/shape_of" type="ShapeOf" version="opset3">
			<data output_type="i64"/>
			<input>
				<port id="0" precision="FP32">
					<dim>1</dim>
					<dim>288</dim>
					<dim>32</dim>
					<dim>40</dim>
				</port>
			</input>
			<output>
				<port id="1" precision="I64">
					<dim>4</dim>
				</port>
			</output>
		</layer>
		<layer id="294" name="GlobalAveragePool_270/input_rank/rank_of" type="ShapeOf" version="opset3">
			<data output_type="i64"/>
			<input>
				<port id="0" precision="I64">
					<dim>4</dim>
				</port>
			</input>
			<output>
				<port id="1" precision="I64">
					<dim>1</dim>
				</port>
			</output>
		</layer>
		<layer id="295" name="GlobalAveragePool_270/input_rank/0d_rank_of/value" type="Const" version="opset1">
			<data element_type="i64" shape="1" offset="6088" size="8"/>
			<output>
				<port id="0" precision="I64">
					<dim>1</dim>
				</port>
			</output>
		</layer>
		<layer id="296" name="GlobalAveragePool_270/input_rank" type="Squeeze" version="opset1">
			<input>
				<port id="0" precision="I64">
					<dim>1</dim>
				</port>
				<port id="1" precision="I64">
					<dim>1</dim>
				</port>
			</input>
			<output>
				<port id="2" precision="I64"/>
			</output>
		</layer>
		<layer id="297" name="2500" type="Const" version="opset1">
			<data element_type="i64" shape="" offset="6096" size="8"/>
			<output>
				<port id="0" precision="I64"/>
			</output>
		</layer>
		<layer id="298" name="GlobalAveragePool_270/global_pooling_reduce_axis" type="Range" version="opset4">
			<data output_type="i64"/>
			<input>
				<port id="0" precision="I64"/>
				<port id="1" precision="I64"/>
				<port id="2" precision="I64"/>
			</input>
			<output>
				<port id="3" precision="I64">
					<dim>2</dim>
				</port>
			</output>
		</layer>
		<layer id="299" name="GlobalAveragePool_270/reduce" type="ReduceMean" version="opset1">
			<data keep_dims="true"/>
			<input>
				<port id="0" precision="FP32">
					<dim>1</dim>
					<dim>288</dim>
					<dim>32</dim>
					<dim>40</dim>
				</port>
				<port id="1" precision="I64">
					<dim>2</dim>
				</port>
			</input>
			<output>
				<port id="2" precision="FP32" names="1888">
					<dim>1</dim>
					<dim>288</dim>
					<dim>1</dim>
					<dim>1</dim>
				</port>
			</output>
		</layer>
		<layer id="300" name="encoder._blocks.8._se_reduce.weight" type="Const" version="opset1">
			<data element_type="f32" shape="12, 288, 1, 1" offset="803784" size="13824"/>
			<output>
				<port id="0" precision="FP32" names="encoder._blocks.8._se_reduce.weight">
					<dim>12</dim>
					<dim>288</dim>
					<dim>1</dim>
					<dim>1</dim>
				</port>
			</output>
		</layer>
		<layer id="301" name="Conv_271/WithoutBiases" type="Convolution" version="opset1">
			<data strides="1, 1" dilations="1, 1" pads_begin="0, 0" pads_end="0, 0" auto_pad="explicit"/>
			<input>
				<port id="0" precision="FP32">
					<dim>1</dim>
					<dim>288</dim>
					<dim>1</dim>
					<dim>1</dim>
				</port>
				<port id="1" precision="FP32">
					<dim>12</dim>
					<dim>288</dim>
					<dim>1</dim>
					<dim>1</dim>
				</port>
			</input>
			<output>
				<port id="2" precision="FP32">
					<dim>1</dim>
					<dim>12</dim>
					<dim>1</dim>
					<dim>1</dim>
				</port>
			</output>
		</layer>
		<layer id="302" name="Conv_271/Dims21320" type="Const" version="opset1">
			<data element_type="f32" shape="1, 12, 1, 1" offset="817608" size="48"/>
			<output>
				<port id="0" precision="FP32">
					<dim>1</dim>
					<dim>12</dim>
					<dim>1</dim>
					<dim>1</dim>
				</port>
			</output>
		</layer>
		<layer id="303" name="Conv_271" type="Add" version="opset1">
			<data auto_broadcast="numpy"/>
			<input>
				<port id="0" precision="FP32">
					<dim>1</dim>
					<dim>12</dim>
					<dim>1</dim>
					<dim>1</dim>
				</port>
				<port id="1" precision="FP32">
					<dim>1</dim>
					<dim>12</dim>
					<dim>1</dim>
					<dim>1</dim>
				</port>
			</input>
			<output>
				<port id="2" precision="FP32" names="1889">
					<dim>1</dim>
					<dim>12</dim>
					<dim>1</dim>
					<dim>1</dim>
				</port>
			</output>
		</layer>
		<layer id="304" name="Mul_273" type="Swish" version="opset4">
			<input>
				<port id="0" precision="FP32">
					<dim>1</dim>
					<dim>12</dim>
					<dim>1</dim>
					<dim>1</dim>
				</port>
			</input>
			<output>
				<port id="1" precision="FP32" names="1891">
					<dim>1</dim>
					<dim>12</dim>
					<dim>1</dim>
					<dim>1</dim>
				</port>
			</output>
		</layer>
		<layer id="305" name="encoder._blocks.8._se_expand.weight" type="Const" version="opset1">
			<data element_type="f32" shape="288, 12, 1, 1" offset="817656" size="13824"/>
			<output>
				<port id="0" precision="FP32" names="encoder._blocks.8._se_expand.weight">
					<dim>288</dim>
					<dim>12</dim>
					<dim>1</dim>
					<dim>1</dim>
				</port>
			</output>
		</layer>
		<layer id="306" name="Conv_274/WithoutBiases" type="Convolution" version="opset1">
			<data strides="1, 1" dilations="1, 1" pads_begin="0, 0" pads_end="0, 0" auto_pad="explicit"/>
			<input>
				<port id="0" precision="FP32">
					<dim>1</dim>
					<dim>12</dim>
					<dim>1</dim>
					<dim>1</dim>
				</port>
				<port id="1" precision="FP32">
					<dim>288</dim>
					<dim>12</dim>
					<dim>1</dim>
					<dim>1</dim>
				</port>
			</input>
			<output>
				<port id="2" precision="FP32">
					<dim>1</dim>
					<dim>288</dim>
					<dim>1</dim>
					<dim>1</dim>
				</port>
			</output>
		</layer>
		<layer id="307" name="Conv_274/Dims22178" type="Const" version="opset1">
			<data element_type="f32" shape="1, 288, 1, 1" offset="831480" size="1152"/>
			<output>
				<port id="0" precision="FP32">
					<dim>1</dim>
					<dim>288</dim>
					<dim>1</dim>
					<dim>1</dim>
				</port>
			</output>
		</layer>
		<layer id="308" name="Conv_274" type="Add" version="opset1">
			<data auto_broadcast="numpy"/>
			<input>
				<port id="0" precision="FP32">
					<dim>1</dim>
					<dim>288</dim>
					<dim>1</dim>
					<dim>1</dim>
				</port>
				<port id="1" precision="FP32">
					<dim>1</dim>
					<dim>288</dim>
					<dim>1</dim>
					<dim>1</dim>
				</port>
			</input>
			<output>
				<port id="2" precision="FP32" names="1892">
					<dim>1</dim>
					<dim>288</dim>
					<dim>1</dim>
					<dim>1</dim>
				</port>
			</output>
		</layer>
		<layer id="309" name="Sigmoid_275" type="Sigmoid" version="opset1">
			<input>
				<port id="0" precision="FP32">
					<dim>1</dim>
					<dim>288</dim>
					<dim>1</dim>
					<dim>1</dim>
				</port>
			</input>
			<output>
				<port id="1" precision="FP32" names="1893">
					<dim>1</dim>
					<dim>288</dim>
					<dim>1</dim>
					<dim>1</dim>
				</port>
			</output>
		</layer>
		<layer id="310" name="Mul_276" type="Multiply" version="opset1">
			<data auto_broadcast="numpy"/>
			<input>
				<port id="0" precision="FP32">
					<dim>1</dim>
					<dim>288</dim>
					<dim>1</dim>
					<dim>1</dim>
				</port>
				<port id="1" precision="FP32">
					<dim>1</dim>
					<dim>288</dim>
					<dim>32</dim>
					<dim>40</dim>
				</port>
			</input>
			<output>
				<port id="2" precision="FP32" names="1894">
					<dim>1</dim>
					<dim>288</dim>
					<dim>32</dim>
					<dim>40</dim>
				</port>
			</output>
		</layer>
		<layer id="311" name="20088" type="Const" version="opset1">
			<data element_type="f32" shape="96, 288, 1, 1" offset="832632" size="110592"/>
			<output>
				<port id="0" precision="FP32" names="20088">
					<dim>96</dim>
					<dim>288</dim>
					<dim>1</dim>
					<dim>1</dim>
				</port>
			</output>
		</layer>
		<layer id="312" name="Conv_277/WithoutBiases" type="Convolution" version="opset1">
			<data strides="1, 1" dilations="1, 1" pads_begin="0, 0" pads_end="0, 0" auto_pad="explicit"/>
			<input>
				<port id="0" precision="FP32">
					<dim>1</dim>
					<dim>288</dim>
					<dim>32</dim>
					<dim>40</dim>
				</port>
				<port id="1" precision="FP32">
					<dim>96</dim>
					<dim>288</dim>
					<dim>1</dim>
					<dim>1</dim>
				</port>
			</input>
			<output>
				<port id="2" precision="FP32">
					<dim>1</dim>
					<dim>96</dim>
					<dim>32</dim>
					<dim>40</dim>
				</port>
			</output>
		</layer>
		<layer id="313" name="Conv_277/Dims21782" type="Const" version="opset1">
			<data element_type="f32" shape="1, 96, 1, 1" offset="943224" size="384"/>
			<output>
				<port id="0" precision="FP32">
					<dim>1</dim>
					<dim>96</dim>
					<dim>1</dim>
					<dim>1</dim>
				</port>
			</output>
		</layer>
		<layer id="314" name="Conv_277" type="Add" version="opset1">
			<data auto_broadcast="numpy"/>
			<input>
				<port id="0" precision="FP32">
					<dim>1</dim>
					<dim>96</dim>
					<dim>32</dim>
					<dim>40</dim>
				</port>
				<port id="1" precision="FP32">
					<dim>1</dim>
					<dim>96</dim>
					<dim>1</dim>
					<dim>1</dim>
				</port>
			</input>
			<output>
				<port id="2" precision="FP32" names="20087">
					<dim>1</dim>
					<dim>96</dim>
					<dim>32</dim>
					<dim>40</dim>
				</port>
			</output>
		</layer>
		<layer id="315" name="20091" type="Const" version="opset1">
			<data element_type="f32" shape="576, 96, 1, 1" offset="943608" size="221184"/>
			<output>
				<port id="0" precision="FP32" names="20091">
					<dim>576</dim>
					<dim>96</dim>
					<dim>1</dim>
					<dim>1</dim>
				</port>
			</output>
		</layer>
		<layer id="316" name="Conv_278/WithoutBiases" type="Convolution" version="opset1">
			<data strides="1, 1" dilations="1, 1" pads_begin="0, 0" pads_end="0, 0" auto_pad="explicit"/>
			<input>
				<port id="0" precision="FP32">
					<dim>1</dim>
					<dim>96</dim>
					<dim>32</dim>
					<dim>40</dim>
				</port>
				<port id="1" precision="FP32">
					<dim>576</dim>
					<dim>96</dim>
					<dim>1</dim>
					<dim>1</dim>
				</port>
			</input>
			<output>
				<port id="2" precision="FP32">
					<dim>1</dim>
					<dim>576</dim>
					<dim>32</dim>
					<dim>40</dim>
				</port>
			</output>
		</layer>
		<layer id="317" name="Conv_278/Dims22454" type="Const" version="opset1">
			<data element_type="f32" shape="1, 576, 1, 1" offset="1164792" size="2304"/>
			<output>
				<port id="0" precision="FP32">
					<dim>1</dim>
					<dim>576</dim>
					<dim>1</dim>
					<dim>1</dim>
				</port>
			</output>
		</layer>
		<layer id="318" name="Conv_278" type="Add" version="opset1">
			<data auto_broadcast="numpy"/>
			<input>
				<port id="0" precision="FP32">
					<dim>1</dim>
					<dim>576</dim>
					<dim>32</dim>
					<dim>40</dim>
				</port>
				<port id="1" precision="FP32">
					<dim>1</dim>
					<dim>576</dim>
					<dim>1</dim>
					<dim>1</dim>
				</port>
			</input>
			<output>
				<port id="2" precision="FP32" names="20090">
					<dim>1</dim>
					<dim>576</dim>
					<dim>32</dim>
					<dim>40</dim>
				</port>
			</output>
		</layer>
		<layer id="319" name="Mul_280" type="Swish" version="opset4">
			<input>
				<port id="0" precision="FP32">
					<dim>1</dim>
					<dim>576</dim>
					<dim>32</dim>
					<dim>40</dim>
				</port>
			</input>
			<output>
				<port id="1" precision="FP32" names="1900">
					<dim>1</dim>
					<dim>576</dim>
					<dim>32</dim>
					<dim>40</dim>
				</port>
			</output>
		</layer>
		<layer id="320" name="20094" type="Const" version="opset1">
			<data element_type="f32" shape="576, 1, 1, 3, 3" offset="1167096" size="20736"/>
			<output>
				<port id="0" precision="FP32" names="20094">
					<dim>576</dim>
					<dim>1</dim>
					<dim>1</dim>
					<dim>3</dim>
					<dim>3</dim>
				</port>
			</output>
		</layer>
		<layer id="321" name="Conv_296/WithoutBiases" type="GroupConvolution" version="opset1">
			<data strides="1, 1" pads_begin="1, 1" pads_end="1, 1" dilations="1, 1" auto_pad="explicit"/>
			<input>
				<port id="0" precision="FP32">
					<dim>1</dim>
					<dim>576</dim>
					<dim>32</dim>
					<dim>40</dim>
				</port>
				<port id="1" precision="FP32">
					<dim>576</dim>
					<dim>1</dim>
					<dim>1</dim>
					<dim>3</dim>
					<dim>3</dim>
				</port>
			</input>
			<output>
				<port id="2" precision="FP32">
					<dim>1</dim>
					<dim>576</dim>
					<dim>32</dim>
					<dim>40</dim>
				</port>
			</output>
		</layer>
		<layer id="322" name="Conv_296/Dims21896" type="Const" version="opset1">
			<data element_type="f32" shape="1, 576, 1, 1" offset="1187832" size="2304"/>
			<output>
				<port id="0" precision="FP32">
					<dim>1</dim>
					<dim>576</dim>
					<dim>1</dim>
					<dim>1</dim>
				</port>
			</output>
		</layer>
		<layer id="323" name="Conv_296" type="Add" version="opset1">
			<data auto_broadcast="numpy"/>
			<input>
				<port id="0" precision="FP32">
					<dim>1</dim>
					<dim>576</dim>
					<dim>32</dim>
					<dim>40</dim>
				</port>
				<port id="1" precision="FP32">
					<dim>1</dim>
					<dim>576</dim>
					<dim>1</dim>
					<dim>1</dim>
				</port>
			</input>
			<output>
				<port id="2" precision="FP32" names="20093">
					<dim>1</dim>
					<dim>576</dim>
					<dim>32</dim>
					<dim>40</dim>
				</port>
			</output>
		</layer>
		<layer id="324" name="Mul_298" type="Swish" version="opset4">
			<input>
				<port id="0" precision="FP32">
					<dim>1</dim>
					<dim>576</dim>
					<dim>32</dim>
					<dim>40</dim>
				</port>
			</input>
			<output>
				<port id="1" precision="FP32" names="1928">
					<dim>1</dim>
					<dim>576</dim>
					<dim>32</dim>
					<dim>40</dim>
				</port>
			</output>
		</layer>
		<layer id="325" name="2503" type="Const" version="opset1">
			<data element_type="i64" shape="" offset="6080" size="8"/>
			<output>
				<port id="0" precision="I64"/>
			</output>
		</layer>
		<layer id="326" name="GlobalAveragePool_299/input_rank/shape_of" type="ShapeOf" version="opset3">
			<data output_type="i64"/>
			<input>
				<port id="0" precision="FP32">
					<dim>1</dim>
					<dim>576</dim>
					<dim>32</dim>
					<dim>40</dim>
				</port>
			</input>
			<output>
				<port id="1" precision="I64">
					<dim>4</dim>
				</port>
			</output>
		</layer>
		<layer id="327" name="GlobalAveragePool_299/input_rank/rank_of" type="ShapeOf" version="opset3">
			<data output_type="i64"/>
			<input>
				<port id="0" precision="I64">
					<dim>4</dim>
				</port>
			</input>
			<output>
				<port id="1" precision="I64">
					<dim>1</dim>
				</port>
			</output>
		</layer>
		<layer id="328" name="GlobalAveragePool_299/input_rank/0d_rank_of/value" type="Const" version="opset1">
			<data element_type="i64" shape="1" offset="6088" size="8"/>
			<output>
				<port id="0" precision="I64">
					<dim>1</dim>
				</port>
			</output>
		</layer>
		<layer id="329" name="GlobalAveragePool_299/input_rank" type="Squeeze" version="opset1">
			<input>
				<port id="0" precision="I64">
					<dim>1</dim>
				</port>
				<port id="1" precision="I64">
					<dim>1</dim>
				</port>
			</input>
			<output>
				<port id="2" precision="I64"/>
			</output>
		</layer>
		<layer id="330" name="2505" type="Const" version="opset1">
			<data element_type="i64" shape="" offset="6096" size="8"/>
			<output>
				<port id="0" precision="I64"/>
			</output>
		</layer>
		<layer id="331" name="GlobalAveragePool_299/global_pooling_reduce_axis" type="Range" version="opset4">
			<data output_type="i64"/>
			<input>
				<port id="0" precision="I64"/>
				<port id="1" precision="I64"/>
				<port id="2" precision="I64"/>
			</input>
			<output>
				<port id="3" precision="I64">
					<dim>2</dim>
				</port>
			</output>
		</layer>
		<layer id="332" name="GlobalAveragePool_299/reduce" type="ReduceMean" version="opset1">
			<data keep_dims="true"/>
			<input>
				<port id="0" precision="FP32">
					<dim>1</dim>
					<dim>576</dim>
					<dim>32</dim>
					<dim>40</dim>
				</port>
				<port id="1" precision="I64">
					<dim>2</dim>
				</port>
			</input>
			<output>
				<port id="2" precision="FP32" names="1929">
					<dim>1</dim>
					<dim>576</dim>
					<dim>1</dim>
					<dim>1</dim>
				</port>
			</output>
		</layer>
		<layer id="333" name="encoder._blocks.9._se_reduce.weight" type="Const" version="opset1">
			<data element_type="f32" shape="24, 576, 1, 1" offset="1190136" size="55296"/>
			<output>
				<port id="0" precision="FP32" names="encoder._blocks.9._se_reduce.weight">
					<dim>24</dim>
					<dim>576</dim>
					<dim>1</dim>
					<dim>1</dim>
				</port>
			</output>
		</layer>
		<layer id="334" name="Conv_300/WithoutBiases" type="Convolution" version="opset1">
			<data strides="1, 1" dilations="1, 1" pads_begin="0, 0" pads_end="0, 0" auto_pad="explicit"/>
			<input>
				<port id="0" precision="FP32">
					<dim>1</dim>
					<dim>576</dim>
					<dim>1</dim>
					<dim>1</dim>
				</port>
				<port id="1" precision="FP32">
					<dim>24</dim>
					<dim>576</dim>
					<dim>1</dim>
					<dim>1</dim>
				</port>
			</input>
			<output>
				<port id="2" precision="FP32">
					<dim>1</dim>
					<dim>24</dim>
					<dim>1</dim>
					<dim>1</dim>
				</port>
			</output>
		</layer>
		<layer id="335" name="Conv_300/Dims22046" type="Const" version="opset1">
			<data element_type="f32" shape="1, 24, 1, 1" offset="1245432" size="96"/>
			<output>
				<port id="0" precision="FP32">
					<dim>1</dim>
					<dim>24</dim>
					<dim>1</dim>
					<dim>1</dim>
				</port>
			</output>
		</layer>
		<layer id="336" name="Conv_300" type="Add" version="opset1">
			<data auto_broadcast="numpy"/>
			<input>
				<port id="0" precision="FP32">
					<dim>1</dim>
					<dim>24</dim>
					<dim>1</dim>
					<dim>1</dim>
				</port>
				<port id="1" precision="FP32">
					<dim>1</dim>
					<dim>24</dim>
					<dim>1</dim>
					<dim>1</dim>
				</port>
			</input>
			<output>
				<port id="2" precision="FP32" names="1930">
					<dim>1</dim>
					<dim>24</dim>
					<dim>1</dim>
					<dim>1</dim>
				</port>
			</output>
		</layer>
		<layer id="337" name="Mul_302" type="Swish" version="opset4">
			<input>
				<port id="0" precision="FP32">
					<dim>1</dim>
					<dim>24</dim>
					<dim>1</dim>
					<dim>1</dim>
				</port>
			</input>
			<output>
				<port id="1" precision="FP32" names="1932">
					<dim>1</dim>
					<dim>24</dim>
					<dim>1</dim>
					<dim>1</dim>
				</port>
			</output>
		</layer>
		<layer id="338" name="encoder._blocks.9._se_expand.weight" type="Const" version="opset1">
			<data element_type="f32" shape="576, 24, 1, 1" offset="1245528" size="55296"/>
			<output>
				<port id="0" precision="FP32" names="encoder._blocks.9._se_expand.weight">
					<dim>576</dim>
					<dim>24</dim>
					<dim>1</dim>
					<dim>1</dim>
				</port>
			</output>
		</layer>
		<layer id="339" name="Conv_303/WithoutBiases" type="Convolution" version="opset1">
			<data strides="1, 1" dilations="1, 1" pads_begin="0, 0" pads_end="0, 0" auto_pad="explicit"/>
			<input>
				<port id="0" precision="FP32">
					<dim>1</dim>
					<dim>24</dim>
					<dim>1</dim>
					<dim>1</dim>
				</port>
				<port id="1" precision="FP32">
					<dim>576</dim>
					<dim>24</dim>
					<dim>1</dim>
					<dim>1</dim>
				</port>
			</input>
			<output>
				<port id="2" precision="FP32">
					<dim>1</dim>
					<dim>576</dim>
					<dim>1</dim>
					<dim>1</dim>
				</port>
			</output>
		</layer>
		<layer id="340" name="Conv_303/Dims21218" type="Const" version="opset1">
			<data element_type="f32" shape="1, 576, 1, 1" offset="1300824" size="2304"/>
			<output>
				<port id="0" precision="FP32">
					<dim>1</dim>
					<dim>576</dim>
					<dim>1</dim>
					<dim>1</dim>
				</port>
			</output>
		</layer>
		<layer id="341" name="Conv_303" type="Add" version="opset1">
			<data auto_broadcast="numpy"/>
			<input>
				<port id="0" precision="FP32">
					<dim>1</dim>
					<dim>576</dim>
					<dim>1</dim>
					<dim>1</dim>
				</port>
				<port id="1" precision="FP32">
					<dim>1</dim>
					<dim>576</dim>
					<dim>1</dim>
					<dim>1</dim>
				</port>
			</input>
			<output>
				<port id="2" precision="FP32" names="1933">
					<dim>1</dim>
					<dim>576</dim>
					<dim>1</dim>
					<dim>1</dim>
				</port>
			</output>
		</layer>
		<layer id="342" name="Sigmoid_304" type="Sigmoid" version="opset1">
			<input>
				<port id="0" precision="FP32">
					<dim>1</dim>
					<dim>576</dim>
					<dim>1</dim>
					<dim>1</dim>
				</port>
			</input>
			<output>
				<port id="1" precision="FP32" names="1934">
					<dim>1</dim>
					<dim>576</dim>
					<dim>1</dim>
					<dim>1</dim>
				</port>
			</output>
		</layer>
		<layer id="343" name="Mul_305" type="Multiply" version="opset1">
			<data auto_broadcast="numpy"/>
			<input>
				<port id="0" precision="FP32">
					<dim>1</dim>
					<dim>576</dim>
					<dim>1</dim>
					<dim>1</dim>
				</port>
				<port id="1" precision="FP32">
					<dim>1</dim>
					<dim>576</dim>
					<dim>32</dim>
					<dim>40</dim>
				</port>
			</input>
			<output>
				<port id="2" precision="FP32" names="1935">
					<dim>1</dim>
					<dim>576</dim>
					<dim>32</dim>
					<dim>40</dim>
				</port>
			</output>
		</layer>
		<layer id="344" name="20097" type="Const" version="opset1">
			<data element_type="f32" shape="96, 576, 1, 1" offset="1303128" size="221184"/>
			<output>
				<port id="0" precision="FP32" names="20097">
					<dim>96</dim>
					<dim>576</dim>
					<dim>1</dim>
					<dim>1</dim>
				</port>
			</output>
		</layer>
		<layer id="345" name="Conv_306/WithoutBiases" type="Convolution" version="opset1">
			<data strides="1, 1" dilations="1, 1" pads_begin="0, 0" pads_end="0, 0" auto_pad="explicit"/>
			<input>
				<port id="0" precision="FP32">
					<dim>1</dim>
					<dim>576</dim>
					<dim>32</dim>
					<dim>40</dim>
				</port>
				<port id="1" precision="FP32">
					<dim>96</dim>
					<dim>576</dim>
					<dim>1</dim>
					<dim>1</dim>
				</port>
			</input>
			<output>
				<port id="2" precision="FP32">
					<dim>1</dim>
					<dim>96</dim>
					<dim>32</dim>
					<dim>40</dim>
				</port>
			</output>
		</layer>
		<layer id="346" name="Conv_306/Dims21944" type="Const" version="opset1">
			<data element_type="f32" shape="1, 96, 1, 1" offset="1524312" size="384"/>
			<output>
				<port id="0" precision="FP32">
					<dim>1</dim>
					<dim>96</dim>
					<dim>1</dim>
					<dim>1</dim>
				</port>
			</output>
		</layer>
		<layer id="347" name="Conv_306" type="Add" version="opset1">
			<data auto_broadcast="numpy"/>
			<input>
				<port id="0" precision="FP32">
					<dim>1</dim>
					<dim>96</dim>
					<dim>32</dim>
					<dim>40</dim>
				</port>
				<port id="1" precision="FP32">
					<dim>1</dim>
					<dim>96</dim>
					<dim>1</dim>
					<dim>1</dim>
				</port>
			</input>
			<output>
				<port id="2" precision="FP32" names="20096">
					<dim>1</dim>
					<dim>96</dim>
					<dim>32</dim>
					<dim>40</dim>
				</port>
			</output>
		</layer>
		<layer id="348" name="Add_307" type="Add" version="opset1">
			<data auto_broadcast="numpy"/>
			<input>
				<port id="0" precision="FP32">
					<dim>1</dim>
					<dim>96</dim>
					<dim>32</dim>
					<dim>40</dim>
				</port>
				<port id="1" precision="FP32">
					<dim>1</dim>
					<dim>96</dim>
					<dim>32</dim>
					<dim>40</dim>
				</port>
			</input>
			<output>
				<port id="2" precision="FP32" names="1938">
					<dim>1</dim>
					<dim>96</dim>
					<dim>32</dim>
					<dim>40</dim>
				</port>
			</output>
		</layer>
		<layer id="349" name="20100" type="Const" version="opset1">
			<data element_type="f32" shape="576, 96, 1, 1" offset="1524696" size="221184"/>
			<output>
				<port id="0" precision="FP32" names="20100">
					<dim>576</dim>
					<dim>96</dim>
					<dim>1</dim>
					<dim>1</dim>
				</port>
			</output>
		</layer>
		<layer id="350" name="Conv_308/WithoutBiases" type="Convolution" version="opset1">
			<data strides="1, 1" dilations="1, 1" pads_begin="0, 0" pads_end="0, 0" auto_pad="explicit"/>
			<input>
				<port id="0" precision="FP32">
					<dim>1</dim>
					<dim>96</dim>
					<dim>32</dim>
					<dim>40</dim>
				</port>
				<port id="1" precision="FP32">
					<dim>576</dim>
					<dim>96</dim>
					<dim>1</dim>
					<dim>1</dim>
				</port>
			</input>
			<output>
				<port id="2" precision="FP32">
					<dim>1</dim>
					<dim>576</dim>
					<dim>32</dim>
					<dim>40</dim>
				</port>
			</output>
		</layer>
		<layer id="351" name="Conv_308/Dims21590" type="Const" version="opset1">
			<data element_type="f32" shape="1, 576, 1, 1" offset="1745880" size="2304"/>
			<output>
				<port id="0" precision="FP32">
					<dim>1</dim>
					<dim>576</dim>
					<dim>1</dim>
					<dim>1</dim>
				</port>
			</output>
		</layer>
		<layer id="352" name="Conv_308" type="Add" version="opset1">
			<data auto_broadcast="numpy"/>
			<input>
				<port id="0" precision="FP32">
					<dim>1</dim>
					<dim>576</dim>
					<dim>32</dim>
					<dim>40</dim>
				</port>
				<port id="1" precision="FP32">
					<dim>1</dim>
					<dim>576</dim>
					<dim>1</dim>
					<dim>1</dim>
				</port>
			</input>
			<output>
				<port id="2" precision="FP32" names="20099">
					<dim>1</dim>
					<dim>576</dim>
					<dim>32</dim>
					<dim>40</dim>
				</port>
			</output>
		</layer>
		<layer id="353" name="Mul_310" type="Swish" version="opset4">
			<input>
				<port id="0" precision="FP32">
					<dim>1</dim>
					<dim>576</dim>
					<dim>32</dim>
					<dim>40</dim>
				</port>
			</input>
			<output>
				<port id="1" precision="FP32" names="1942">
					<dim>1</dim>
					<dim>576</dim>
					<dim>32</dim>
					<dim>40</dim>
				</port>
			</output>
		</layer>
		<layer id="354" name="20103" type="Const" version="opset1">
			<data element_type="f32" shape="576, 1, 1, 3, 3" offset="1748184" size="20736"/>
			<output>
				<port id="0" precision="FP32" names="20103">
					<dim>576</dim>
					<dim>1</dim>
					<dim>1</dim>
					<dim>3</dim>
					<dim>3</dim>
				</port>
			</output>
		</layer>
		<layer id="355" name="Conv_326/WithoutBiases" type="GroupConvolution" version="opset1">
			<data strides="1, 1" pads_begin="1, 1" pads_end="1, 1" dilations="1, 1" auto_pad="explicit"/>
			<input>
				<port id="0" precision="FP32">
					<dim>1</dim>
					<dim>576</dim>
					<dim>32</dim>
					<dim>40</dim>
				</port>
				<port id="1" precision="FP32">
					<dim>576</dim>
					<dim>1</dim>
					<dim>1</dim>
					<dim>3</dim>
					<dim>3</dim>
				</port>
			</input>
			<output>
				<port id="2" precision="FP32">
					<dim>1</dim>
					<dim>576</dim>
					<dim>32</dim>
					<dim>40</dim>
				</port>
			</output>
		</layer>
		<layer id="356" name="Conv_326/Dims21968" type="Const" version="opset1">
			<data element_type="f32" shape="1, 576, 1, 1" offset="1768920" size="2304"/>
			<output>
				<port id="0" precision="FP32">
					<dim>1</dim>
					<dim>576</dim>
					<dim>1</dim>
					<dim>1</dim>
				</port>
			</output>
		</layer>
		<layer id="357" name="Conv_326" type="Add" version="opset1">
			<data auto_broadcast="numpy"/>
			<input>
				<port id="0" precision="FP32">
					<dim>1</dim>
					<dim>576</dim>
					<dim>32</dim>
					<dim>40</dim>
				</port>
				<port id="1" precision="FP32">
					<dim>1</dim>
					<dim>576</dim>
					<dim>1</dim>
					<dim>1</dim>
				</port>
			</input>
			<output>
				<port id="2" precision="FP32" names="20102">
					<dim>1</dim>
					<dim>576</dim>
					<dim>32</dim>
					<dim>40</dim>
				</port>
			</output>
		</layer>
		<layer id="358" name="Mul_328" type="Swish" version="opset4">
			<input>
				<port id="0" precision="FP32">
					<dim>1</dim>
					<dim>576</dim>
					<dim>32</dim>
					<dim>40</dim>
				</port>
			</input>
			<output>
				<port id="1" precision="FP32" names="1970">
					<dim>1</dim>
					<dim>576</dim>
					<dim>32</dim>
					<dim>40</dim>
				</port>
			</output>
		</layer>
		<layer id="359" name="2508" type="Const" version="opset1">
			<data element_type="i64" shape="" offset="6080" size="8"/>
			<output>
				<port id="0" precision="I64"/>
			</output>
		</layer>
		<layer id="360" name="GlobalAveragePool_329/input_rank/shape_of" type="ShapeOf" version="opset3">
			<data output_type="i64"/>
			<input>
				<port id="0" precision="FP32">
					<dim>1</dim>
					<dim>576</dim>
					<dim>32</dim>
					<dim>40</dim>
				</port>
			</input>
			<output>
				<port id="1" precision="I64">
					<dim>4</dim>
				</port>
			</output>
		</layer>
		<layer id="361" name="GlobalAveragePool_329/input_rank/rank_of" type="ShapeOf" version="opset3">
			<data output_type="i64"/>
			<input>
				<port id="0" precision="I64">
					<dim>4</dim>
				</port>
			</input>
			<output>
				<port id="1" precision="I64">
					<dim>1</dim>
				</port>
			</output>
		</layer>
		<layer id="362" name="GlobalAveragePool_329/input_rank/0d_rank_of/value" type="Const" version="opset1">
			<data element_type="i64" shape="1" offset="6088" size="8"/>
			<output>
				<port id="0" precision="I64">
					<dim>1</dim>
				</port>
			</output>
		</layer>
		<layer id="363" name="GlobalAveragePool_329/input_rank" type="Squeeze" version="opset1">
			<input>
				<port id="0" precision="I64">
					<dim>1</dim>
				</port>
				<port id="1" precision="I64">
					<dim>1</dim>
				</port>
			</input>
			<output>
				<port id="2" precision="I64"/>
			</output>
		</layer>
		<layer id="364" name="2510" type="Const" version="opset1">
			<data element_type="i64" shape="" offset="6096" size="8"/>
			<output>
				<port id="0" precision="I64"/>
			</output>
		</layer>
		<layer id="365" name="GlobalAveragePool_329/global_pooling_reduce_axis" type="Range" version="opset4">
			<data output_type="i64"/>
			<input>
				<port id="0" precision="I64"/>
				<port id="1" precision="I64"/>
…
		<edge from-layer="2063" from-port="1" to-layer="2067" to-port="0"/>
		<edge from-layer="2064" from-port="0" to-layer="2067" to-port="1"/>
		<edge from-layer="2065" from-port="0" to-layer="2067" to-port="2"/>
		<edge from-layer="2066" from-port="0" to-layer="2067" to-port="3"/>
		<edge from-layer="2067" from-port="4" to-layer="2070" to-port="1"/>
		<edge from-layer="2068" from-port="0" to-layer="2070" to-port="2"/>
		<edge from-layer="2069" from-port="0" to-layer="2070" to-port="3"/>
		<edge from-layer="2070" from-port="4" to-layer="2072" to-port="0"/>
		<edge from-layer="2071" from-port="0" to-layer="2072" to-port="1"/>
		<edge from-layer="2072" from-port="2" to-layer="2074" to-port="0"/>
		<edge from-layer="2073" from-port="0" to-layer="2074" to-port="1"/>
		<edge from-layer="2074" from-port="2" to-layer="2075" to-port="0"/>
		<edge from-layer="2075" from-port="1" to-layer="2077" to-port="0"/>
		<edge from-layer="2076" from-port="0" to-layer="2077" to-port="1"/>
		<edge from-layer="2077" from-port="2" to-layer="2079" to-port="0"/>
		<edge from-layer="2078" from-port="0" to-layer="2079" to-port="1"/>
		<edge from-layer="2079" from-port="2" to-layer="2081" to-port="0"/>
		<edge from-layer="2080" from-port="0" to-layer="2081" to-port="1"/>
		<edge from-layer="2081" from-port="2" to-layer="2082" to-port="0"/>
		<edge from-layer="2081" from-port="2" to-layer="2096" to-port="0"/>
		<edge from-layer="2082" from-port="1" to-layer="2083" to-port="0"/>
		<edge from-layer="2083" from-port="1" to-layer="2085" to-port="0"/>
		<edge from-layer="2084" from-port="0" to-layer="2085" to-port="1"/>
		<edge from-layer="2085" from-port="2" to-layer="2087" to-port="0"/>
		<edge from-layer="2086" from-port="0" to-layer="2087" to-port="1"/>
		<edge from-layer="2087" from-port="2" to-layer="2088" to-port="0"/>
		<edge from-layer="2088" from-port="1" to-layer="2089" to-port="0"/>
		<edge from-layer="2089" from-port="1" to-layer="2093" to-port="0"/>
		<edge from-layer="2090" from-port="0" to-layer="2093" to-port="1"/>
		<edge from-layer="2091" from-port="0" to-layer="2093" to-port="2"/>
		<edge from-layer="2092" from-port="0" to-layer="2093" to-port="3"/>
		<edge from-layer="2093" from-port="4" to-layer="2096" to-port="1"/>
		<edge from-layer="2094" from-port="0" to-layer="2096" to-port="2"/>
		<edge from-layer="2095" from-port="0" to-layer="2096" to-port="3"/>
		<edge from-layer="2096" from-port="4" to-layer="2098" to-port="0"/>
		<edge from-layer="2097" from-port="0" to-layer="2098" to-port="1"/>
		<edge from-layer="2098" from-port="2" to-layer="2100" to-port="0"/>
		<edge from-layer="2099" from-port="0" to-layer="2100" to-port="1"/>
		<edge from-layer="2100" from-port="2" to-layer="2101" to-port="0"/>
		<edge from-layer="2101" from-port="1" to-layer="2103" to-port="0"/>
		<edge from-layer="2102" from-port="0" to-layer="2103" to-port="1"/>
		<edge from-layer="2103" from-port="2" to-layer="2105" to-port="0"/>
		<edge from-layer="2104" from-port="0" to-layer="2105" to-port="1"/>
		<edge from-layer="2105" from-port="2" to-layer="2107" to-port="0"/>
		<edge from-layer="2106" from-port="0" to-layer="2107" to-port="1"/>
		<edge from-layer="2107" from-port="2" to-layer="2122" to-port="0"/>
		<edge from-layer="2107" from-port="2" to-layer="2108" to-port="0"/>
		<edge from-layer="2108" from-port="1" to-layer="2109" to-port="0"/>
		<edge from-layer="2109" from-port="1" to-layer="2111" to-port="0"/>
		<edge from-layer="2110" from-port="0" to-layer="2111" to-port="1"/>
		<edge from-layer="2111" from-port="2" to-layer="2113" to-port="0"/>
		<edge from-layer="2112" from-port="0" to-layer="2113" to-port="1"/>
		<edge from-layer="2113" from-port="2" to-layer="2114" to-port="0"/>
		<edge from-layer="2114" from-port="1" to-layer="2115" to-port="0"/>
		<edge from-layer="2115" from-port="1" to-layer="2119" to-port="0"/>
		<edge from-layer="2116" from-port="0" to-layer="2119" to-port="1"/>
		<edge from-layer="2117" from-port="0" to-layer="2119" to-port="2"/>
		<edge from-layer="2118" from-port="0" to-layer="2119" to-port="3"/>
		<edge from-layer="2119" from-port="4" to-layer="2122" to-port="1"/>
		<edge from-layer="2120" from-port="0" to-layer="2122" to-port="2"/>
		<edge from-layer="2121" from-port="0" to-layer="2122" to-port="3"/>
		<edge from-layer="2122" from-port="4" to-layer="2124" to-port="0"/>
		<edge from-layer="2123" from-port="0" to-layer="2124" to-port="1"/>
		<edge from-layer="2124" from-port="2" to-layer="2126" to-port="0"/>
		<edge from-layer="2125" from-port="0" to-layer="2126" to-port="1"/>
		<edge from-layer="2126" from-port="2" to-layer="2127" to-port="0"/>
		<edge from-layer="2127" from-port="1" to-layer="2129" to-port="0"/>
		<edge from-layer="2128" from-port="0" to-layer="2129" to-port="1"/>
		<edge from-layer="2129" from-port="2" to-layer="2131" to-port="0"/>
		<edge from-layer="2130" from-port="0" to-layer="2131" to-port="1"/>
		<edge from-layer="2131" from-port="2" to-layer="2133" to-port="0"/>
		<edge from-layer="2132" from-port="0" to-layer="2133" to-port="1"/>
		<edge from-layer="2133" from-port="2" to-layer="2148" to-port="0"/>
		<edge from-layer="2133" from-port="2" to-layer="2134" to-port="0"/>
		<edge from-layer="2134" from-port="1" to-layer="2135" to-port="0"/>
		<edge from-layer="2135" from-port="1" to-layer="2137" to-port="0"/>
		<edge from-layer="2136" from-port="0" to-layer="2137" to-port="1"/>
		<edge from-layer="2137" from-port="2" to-layer="2139" to-port="0"/>
		<edge from-layer="2138" from-port="0" to-layer="2139" to-port="1"/>
		<edge from-layer="2139" from-port="2" to-layer="2140" to-port="0"/>
		<edge from-layer="2140" from-port="1" to-layer="2141" to-port="0"/>
		<edge from-layer="2141" from-port="1" to-layer="2145" to-port="0"/>
		<edge from-layer="2142" from-port="0" to-layer="2145" to-port="1"/>
		<edge from-layer="2143" from-port="0" to-layer="2145" to-port="2"/>
		<edge from-layer="2144" from-port="0" to-layer="2145" to-port="3"/>
		<edge from-layer="2145" from-port="4" to-layer="2148" to-port="1"/>
		<edge from-layer="2146" from-port="0" to-layer="2148" to-port="2"/>
		<edge from-layer="2147" from-port="0" to-layer="2148" to-port="3"/>
		<edge from-layer="2148" from-port="4" to-layer="2149" to-port="1"/>
		<edge from-layer="2149" from-port="2" to-layer="2228" to-port="0"/>
		<edge from-layer="2150" from-port="0" to-layer="2151" to-port="1"/>
		<edge from-layer="2151" from-port="2" to-layer="2153" to-port="0"/>
		<edge from-layer="2152" from-port="0" to-layer="2153" to-port="1"/>
		<edge from-layer="2153" from-port="2" to-layer="2154" to-port="0"/>
		<edge from-layer="2154" from-port="1" to-layer="2156" to-port="0"/>
		<edge from-layer="2155" from-port="0" to-layer="2156" to-port="1"/>
		<edge from-layer="2156" from-port="2" to-layer="2158" to-port="0"/>
		<edge from-layer="2157" from-port="0" to-layer="2158" to-port="1"/>
		<edge from-layer="2158" from-port="2" to-layer="2160" to-port="0"/>
		<edge from-layer="2159" from-port="0" to-layer="2160" to-port="1"/>
		<edge from-layer="2160" from-port="2" to-layer="2161" to-port="0"/>
		<edge from-layer="2160" from-port="2" to-layer="2175" to-port="0"/>
		<edge from-layer="2161" from-port="1" to-layer="2162" to-port="0"/>
		<edge from-layer="2162" from-port="1" to-layer="2164" to-port="0"/>
		<edge from-layer="2163" from-port="0" to-layer="2164" to-port="1"/>
		<edge from-layer="2164" from-port="2" to-layer="2166" to-port="0"/>
		<edge from-layer="2165" from-port="0" to-layer="2166" to-port="1"/>
		<edge from-layer="2166" from-port="2" to-layer="2167" to-port="0"/>
		<edge from-layer="2167" from-port="1" to-layer="2168" to-port="0"/>
		<edge from-layer="2168" from-port="1" to-layer="2172" to-port="0"/>
		<edge from-layer="2169" from-port="0" to-layer="2172" to-port="1"/>
		<edge from-layer="2170" from-port="0" to-layer="2172" to-port="2"/>
		<edge from-layer="2171" from-port="0" to-layer="2172" to-port="3"/>
		<edge from-layer="2172" from-port="4" to-layer="2175" to-port="1"/>
		<edge from-layer="2173" from-port="0" to-layer="2175" to-port="2"/>
		<edge from-layer="2174" from-port="0" to-layer="2175" to-port="3"/>
		<edge from-layer="2175" from-port="4" to-layer="2177" to-port="0"/>
		<edge from-layer="2176" from-port="0" to-layer="2177" to-port="1"/>
		<edge from-layer="2177" from-port="2" to-layer="2179" to-port="0"/>
		<edge from-layer="2178" from-port="0" to-layer="2179" to-port="1"/>
		<edge from-layer="2179" from-port="2" to-layer="2180" to-port="0"/>
		<edge from-layer="2180" from-port="1" to-layer="2182" to-port="0"/>
		<edge from-layer="2181" from-port="0" to-layer="2182" to-port="1"/>
		<edge from-layer="2182" from-port="2" to-layer="2184" to-port="0"/>
		<edge from-layer="2183" from-port="0" to-layer="2184" to-port="1"/>
		<edge from-layer="2184" from-port="2" to-layer="2186" to-port="0"/>
		<edge from-layer="2185" from-port="0" to-layer="2186" to-port="1"/>
		<edge from-layer="2186" from-port="2" to-layer="2201" to-port="0"/>
		<edge from-layer="2186" from-port="2" to-layer="2187" to-port="0"/>
		<edge from-layer="2187" from-port="1" to-layer="2188" to-port="0"/>
		<edge from-layer="2188" from-port="1" to-layer="2190" to-port="0"/>
		<edge from-layer="2189" from-port="0" to-layer="2190" to-port="1"/>
		<edge from-layer="2190" from-port="2" to-layer="2192" to-port="0"/>
		<edge from-layer="2191" from-port="0" to-layer="2192" to-port="1"/>
		<edge from-layer="2192" from-port="2" to-layer="2193" to-port="0"/>
		<edge from-layer="2193" from-port="1" to-layer="2194" to-port="0"/>
		<edge from-layer="2194" from-port="1" to-layer="2198" to-port="0"/>
		<edge from-layer="2195" from-port="0" to-layer="2198" to-port="1"/>
		<edge from-layer="2196" from-port="0" to-layer="2198" to-port="2"/>
		<edge from-layer="2197" from-port="0" to-layer="2198" to-port="3"/>
		<edge from-layer="2198" from-port="4" to-layer="2201" to-port="1"/>
		<edge from-layer="2199" from-port="0" to-layer="2201" to-port="2"/>
		<edge from-layer="2200" from-port="0" to-layer="2201" to-port="3"/>
		<edge from-layer="2201" from-port="4" to-layer="2203" to-port="0"/>
		<edge from-layer="2202" from-port="0" to-layer="2203" to-port="1"/>
		<edge from-layer="2203" from-port="2" to-layer="2205" to-port="0"/>
		<edge from-layer="2204" from-port="0" to-layer="2205" to-port="1"/>
		<edge from-layer="2205" from-port="2" to-layer="2206" to-port="0"/>
		<edge from-layer="2206" from-port="1" to-layer="2208" to-port="0"/>
		<edge from-layer="2207" from-port="0" to-layer="2208" to-port="1"/>
		<edge from-layer="2208" from-port="2" to-layer="2210" to-port="0"/>
		<edge from-layer="2209" from-port="0" to-layer="2210" to-port="1"/>
		<edge from-layer="2210" from-port="2" to-layer="2212" to-port="0"/>
		<edge from-layer="2211" from-port="0" to-layer="2212" to-port="1"/>
		<edge from-layer="2212" from-port="2" to-layer="2227" to-port="0"/>
		<edge from-layer="2212" from-port="2" to-layer="2213" to-port="0"/>
		<edge from-layer="2213" from-port="1" to-layer="2214" to-port="0"/>
		<edge from-layer="2214" from-port="1" to-layer="2216" to-port="0"/>
		<edge from-layer="2215" from-port="0" to-layer="2216" to-port="1"/>
		<edge from-layer="2216" from-port="2" to-layer="2218" to-port="0"/>
		<edge from-layer="2217" from-port="0" to-layer="2218" to-port="1"/>
		<edge from-layer="2218" from-port="2" to-layer="2219" to-port="0"/>
		<edge from-layer="2219" from-port="1" to-layer="2220" to-port="0"/>
		<edge from-layer="2220" from-port="1" to-layer="2224" to-port="0"/>
		<edge from-layer="2221" from-port="0" to-layer="2224" to-port="1"/>
		<edge from-layer="2222" from-port="0" to-layer="2224" to-port="2"/>
		<edge from-layer="2223" from-port="0" to-layer="2224" to-port="3"/>
		<edge from-layer="2224" from-port="4" to-layer="2227" to-port="1"/>
		<edge from-layer="2225" from-port="0" to-layer="2227" to-port="2"/>
		<edge from-layer="2226" from-port="0" to-layer="2227" to-port="3"/>
		<edge from-layer="2227" from-port="4" to-layer="2228" to-port="1"/>
		<edge from-layer="2228" from-port="2" to-layer="2281" to-port="0"/>
		<edge from-layer="2229" from-port="0" to-layer="2230" to-port="1"/>
		<edge from-layer="2230" from-port="2" to-layer="2232" to-port="0"/>
		<edge from-layer="2231" from-port="0" to-layer="2232" to-port="1"/>
		<edge from-layer="2232" from-port="2" to-layer="2233" to-port="0"/>
		<edge from-layer="2233" from-port="1" to-layer="2235" to-port="0"/>
		<edge from-layer="2234" from-port="0" to-layer="2235" to-port="1"/>
		<edge from-layer="2235" from-port="2" to-layer="2237" to-port="0"/>
		<edge from-layer="2236" from-port="0" to-layer="2237" to-port="1"/>
		<edge from-layer="2237" from-port="2" to-layer="2239" to-port="0"/>
		<edge from-layer="2238" from-port="0" to-layer="2239" to-port="1"/>
		<edge from-layer="2239" from-port="2" to-layer="2240" to-port="0"/>
		<edge from-layer="2239" from-port="2" to-layer="2254" to-port="0"/>
		<edge from-layer="2240" from-port="1" to-layer="2241" to-port="0"/>
		<edge from-layer="2241" from-port="1" to-layer="2243" to-port="0"/>
		<edge from-layer="2242" from-port="0" to-layer="2243" to-port="1"/>
		<edge from-layer="2243" from-port="2" to-layer="2245" to-port="0"/>
		<edge from-layer="2244" from-port="0" to-layer="2245" to-port="1"/>
		<edge from-layer="2245" from-port="2" to-layer="2246" to-port="0"/>
		<edge from-layer="2246" from-port="1" to-layer="2247" to-port="0"/>
		<edge from-layer="2247" from-port="1" to-layer="2251" to-port="0"/>
		<edge from-layer="2248" from-port="0" to-layer="2251" to-port="1"/>
		<edge from-layer="2249" from-port="0" to-layer="2251" to-port="2"/>
		<edge from-layer="2250" from-port="0" to-layer="2251" to-port="3"/>
		<edge from-layer="2251" from-port="4" to-layer="2254" to-port="1"/>
		<edge from-layer="2252" from-port="0" to-layer="2254" to-port="2"/>
		<edge from-layer="2253" from-port="0" to-layer="2254" to-port="3"/>
		<edge from-layer="2254" from-port="4" to-layer="2256" to-port="0"/>
		<edge from-layer="2255" from-port="0" to-layer="2256" to-port="1"/>
		<edge from-layer="2256" from-port="2" to-layer="2258" to-port="0"/>
		<edge from-layer="2257" from-port="0" to-layer="2258" to-port="1"/>
		<edge from-layer="2258" from-port="2" to-layer="2259" to-port="0"/>
		<edge from-layer="2259" from-port="1" to-layer="2261" to-port="0"/>
		<edge from-layer="2260" from-port="0" to-layer="2261" to-port="1"/>
		<edge from-layer="2261" from-port="2" to-layer="2263" to-port="0"/>
		<edge from-layer="2262" from-port="0" to-layer="2263" to-port="1"/>
		<edge from-layer="2263" from-port="2" to-layer="2265" to-port="0"/>
		<edge from-layer="2264" from-port="0" to-layer="2265" to-port="1"/>
		<edge from-layer="2265" from-port="2" to-layer="2280" to-port="0"/>
		<edge from-layer="2265" from-port="2" to-layer="2266" to-port="0"/>
		<edge from-layer="2266" from-port="1" to-layer="2267" to-port="0"/>
		<edge from-layer="2267" from-port="1" to-layer="2269" to-port="0"/>
		<edge from-layer="2268" from-port="0" to-layer="2269" to-port="1"/>
		<edge from-layer="2269" from-port="2" to-layer="2271" to-port="0"/>
		<edge from-layer="2270" from-port="0" to-layer="2271" to-port="1"/>
		<edge from-layer="2271" from-port="2" to-layer="2272" to-port="0"/>
		<edge from-layer="2272" from-port="1" to-layer="2273" to-port="0"/>
		<edge from-layer="2273" from-port="1" to-layer="2277" to-port="0"/>
		<edge from-layer="2274" from-port="0" to-layer="2277" to-port="1"/>
		<edge from-layer="2275" from-port="0" to-layer="2277" to-port="2"/>
		<edge from-layer="2276" from-port="0" to-layer="2277" to-port="3"/>
		<edge from-layer="2277" from-port="4" to-layer="2280" to-port="1"/>
		<edge from-layer="2278" from-port="0" to-layer="2280" to-port="2"/>
		<edge from-layer="2279" from-port="0" to-layer="2280" to-port="3"/>
		<edge from-layer="2280" from-port="4" to-layer="2281" to-port="1"/>
		<edge from-layer="2281" from-port="2" to-layer="2308" to-port="0"/>
		<edge from-layer="2282" from-port="0" to-layer="2283" to-port="1"/>
		<edge from-layer="2283" from-port="2" to-layer="2285" to-port="0"/>
		<edge from-layer="2284" from-port="0" to-layer="2285" to-port="1"/>
		<edge from-layer="2285" from-port="2" to-layer="2286" to-port="0"/>
		<edge from-layer="2286" from-port="1" to-layer="2288" to-port="0"/>
		<edge from-layer="2287" from-port="0" to-layer="2288" to-port="1"/>
		<edge from-layer="2288" from-port="2" to-layer="2290" to-port="0"/>
		<edge from-layer="2289" from-port="0" to-layer="2290" to-port="1"/>
		<edge from-layer="2290" from-port="2" to-layer="2292" to-port="0"/>
		<edge from-layer="2291" from-port="0" to-layer="2292" to-port="1"/>
		<edge from-layer="2292" from-port="2" to-layer="2293" to-port="0"/>
		<edge from-layer="2292" from-port="2" to-layer="2307" to-port="0"/>
		<edge from-layer="2293" from-port="1" to-layer="2294" to-port="0"/>
		<edge from-layer="2294" from-port="1" to-layer="2296" to-port="0"/>
		<edge from-layer="2295" from-port="0" to-layer="2296" to-port="1"/>
		<edge from-layer="2296" from-port="2" to-layer="2298" to-port="0"/>
		<edge from-layer="2297" from-port="0" to-layer="2298" to-port="1"/>
		<edge from-layer="2298" from-port="2" to-layer="2299" to-port="0"/>
		<edge from-layer="2299" from-port="1" to-layer="2300" to-port="0"/>
		<edge from-layer="2300" from-port="1" to-layer="2304" to-port="0"/>
		<edge from-layer="2301" from-port="0" to-layer="2304" to-port="1"/>
		<edge from-layer="2302" from-port="0" to-layer="2304" to-port="2"/>
		<edge from-layer="2303" from-port="0" to-layer="2304" to-port="3"/>
		<edge from-layer="2304" from-port="4" to-layer="2307" to-port="1"/>
		<edge from-layer="2305" from-port="0" to-layer="2307" to-port="2"/>
		<edge from-layer="2306" from-port="0" to-layer="2307" to-port="3"/>
		<edge from-layer="2307" from-port="4" to-layer="2308" to-port="1"/>
		<edge from-layer="2308" from-port="2" to-layer="2310" to-port="0"/>
		<edge from-layer="2309" from-port="0" to-layer="2310" to-port="1"/>
		<edge from-layer="2310" from-port="2" to-layer="2312" to-port="0"/>
		<edge from-layer="2311" from-port="0" to-layer="2312" to-port="1"/>
		<edge from-layer="2312" from-port="2" to-layer="2313" to-port="0"/>
		<edge from-layer="2312" from-port="2" to-layer="2327" to-port="0"/>
		<edge from-layer="2313" from-port="1" to-layer="2314" to-port="0"/>
		<edge from-layer="2314" from-port="1" to-layer="2316" to-port="0"/>
		<edge from-layer="2315" from-port="0" to-layer="2316" to-port="1"/>
		<edge from-layer="2316" from-port="2" to-layer="2318" to-port="0"/>
		<edge from-layer="2317" from-port="0" to-layer="2318" to-port="1"/>
		<edge from-layer="2318" from-port="2" to-layer="2319" to-port="0"/>
		<edge from-layer="2319" from-port="1" to-layer="2320" to-port="0"/>
		<edge from-layer="2320" from-port="1" to-layer="2324" to-port="0"/>
		<edge from-layer="2321" from-port="0" to-layer="2324" to-port="1"/>
		<edge from-layer="2322" from-port="0" to-layer="2324" to-port="2"/>
		<edge from-layer="2323" from-port="0" to-layer="2324" to-port="3"/>
		<edge from-layer="2324" from-port="4" to-layer="2327" to-port="1"/>
		<edge from-layer="2325" from-port="0" to-layer="2327" to-port="2"/>
		<edge from-layer="2326" from-port="0" to-layer="2327" to-port="3"/>
		<edge from-layer="2327" from-port="4" to-layer="2329" to-port="0"/>
		<edge from-layer="2328" from-port="0" to-layer="2329" to-port="1"/>
		<edge from-layer="2329" from-port="2" to-layer="2338" to-port="0"/>
		<edge from-layer="2329" from-port="2" to-layer="2340" to-port="0"/>
		<edge from-layer="2329" from-port="2" to-layer="2330" to-port="0"/>
		<edge from-layer="2330" from-port="1" to-layer="2333" to-port="0"/>
		<edge from-layer="2331" from-port="0" to-layer="2333" to-port="1"/>
		<edge from-layer="2332" from-port="0" to-layer="2333" to-port="2"/>
		<edge from-layer="2333" from-port="3" to-layer="2335" to-port="0"/>
		<edge from-layer="2334" from-port="0" to-layer="2335" to-port="1"/>
		<edge from-layer="2335" from-port="2" to-layer="2337" to-port="0"/>
		<edge from-layer="2336" from-port="0" to-layer="2337" to-port="1"/>
		<edge from-layer="2337" from-port="2" to-layer="2338" to-port="1"/>
		<edge from-layer="2338" from-port="2" to-layer="2339" to-port="0"/>
		<edge from-layer="2339" from-port="1" to-layer="2341" to-port="0"/>
		<edge from-layer="2340" from-port="1" to-layer="2341" to-port="1"/>
		<edge from-layer="2341" from-port="2" to-layer="2343" to-port="0"/>
		<edge from-layer="2342" from-port="0" to-layer="2343" to-port="1"/>
		<edge from-layer="2343" from-port="2" to-layer="2344" to-port="0"/>
		<edge from-layer="2345" from-port="0" to-layer="2346" to-port="1"/>
		<edge from-layer="2346" from-port="2" to-layer="2348" to-port="0"/>
		<edge from-layer="2347" from-port="0" to-layer="2348" to-port="1"/>
		<edge from-layer="2348" from-port="2" to-layer="2350" to-port="0"/>
		<edge from-layer="2349" from-port="0" to-layer="2350" to-port="1"/>
		<edge from-layer="2350" from-port="2" to-layer="2351" to-port="0"/>
		<edge from-layer="2351" from-port="1" to-layer="2353" to-port="0"/>
		<edge from-layer="2352" from-port="0" to-layer="2353" to-port="1"/>
		<edge from-layer="2353" from-port="2" to-layer="2355" to-port="0"/>
		<edge from-layer="2354" from-port="0" to-layer="2355" to-port="1"/>
		<edge from-layer="2355" from-port="2" to-layer="2357" to-port="0"/>
		<edge from-layer="2356" from-port="0" to-layer="2357" to-port="1"/>
		<edge from-layer="2357" from-port="2" to-layer="2358" to-port="0"/>
		<edge from-layer="2358" from-port="1" to-layer="2360" to-port="0"/>
		<edge from-layer="2359" from-port="0" to-layer="2360" to-port="1"/>
		<edge from-layer="2360" from-port="2" to-layer="2362" to-port="0"/>
		<edge from-layer="2361" from-port="0" to-layer="2362" to-port="1"/>
		<edge from-layer="2362" from-port="2" to-layer="2364" to-port="0"/>
		<edge from-layer="2363" from-port="0" to-layer="2364" to-port="1"/>
		<edge from-layer="2364" from-port="2" to-layer="2365" to-port="0"/>
		<edge from-layer="2365" from-port="1" to-layer="2367" to-port="0"/>
		<edge from-layer="2366" from-port="0" to-layer="2367" to-port="1"/>
		<edge from-layer="2367" from-port="2" to-layer="2369" to-port="0"/>
		<edge from-layer="2368" from-port="0" to-layer="2369" to-port="1"/>
		<edge from-layer="2369" from-port="2" to-layer="2371" to-port="0"/>
		<edge from-layer="2370" from-port="0" to-layer="2371" to-port="1"/>
		<edge from-layer="2371" from-port="2" to-layer="2372" to-port="0"/>
		<edge from-layer="2372" from-port="1" to-layer="2374" to-port="0"/>
		<edge from-layer="2373" from-port="0" to-layer="2374" to-port="1"/>
		<edge from-layer="2374" from-port="2" to-layer="2376" to-port="0"/>
		<edge from-layer="2375" from-port="0" to-layer="2376" to-port="1"/>
		<edge from-layer="2376" from-port="2" to-layer="2378" to-port="0"/>
		<edge from-layer="2377" from-port="0" to-layer="2378" to-port="1"/>
		<edge from-layer="2378" from-port="2" to-layer="2380" to-port="0"/>
		<edge from-layer="2379" from-port="0" to-layer="2380" to-port="1"/>
		<edge from-layer="2380" from-port="2" to-layer="2382" to-port="0"/>
		<edge from-layer="2381" from-port="0" to-layer="2382" to-port="1"/>
		<edge from-layer="2382" from-port="2" to-layer="2384" to-port="0"/>
		<edge from-layer="2383" from-port="0" to-layer="2384" to-port="1"/>
		<edge from-layer="2384" from-port="2" to-layer="2545" to-port="0"/>
		<edge from-layer="2385" from-port="0" to-layer="2386" to-port="1"/>
		<edge from-layer="2386" from-port="2" to-layer="2388" to-port="0"/>
		<edge from-layer="2387" from-port="0" to-layer="2388" to-port="1"/>
		<edge from-layer="2388" from-port="2" to-layer="2390" to-port="0"/>
		<edge from-layer="2389" from-port="0" to-layer="2390" to-port="1"/>
		<edge from-layer="2390" from-port="2" to-layer="2391" to-port="0"/>
		<edge from-layer="2391" from-port="1" to-layer="2393" to-port="0"/>
		<edge from-layer="2392" from-port="0" to-layer="2393" to-port="1"/>
		<edge from-layer="2393" from-port="2" to-layer="2395" to-port="0"/>
		<edge from-layer="2394" from-port="0" to-layer="2395" to-port="1"/>
		<edge from-layer="2395" from-port="2" to-layer="2397" to-port="0"/>
		<edge from-layer="2396" from-port="0" to-layer="2397" to-port="1"/>
		<edge from-layer="2397" from-port="2" to-layer="2398" to-port="0"/>
		<edge from-layer="2398" from-port="1" to-layer="2400" to-port="0"/>
		<edge from-layer="2399" from-port="0" to-layer="2400" to-port="1"/>
		<edge from-layer="2400" from-port="2" to-layer="2402" to-port="0"/>
		<edge from-layer="2401" from-port="0" to-layer="2402" to-port="1"/>
		<edge from-layer="2402" from-port="2" to-layer="2404" to-port="0"/>
		<edge from-layer="2403" from-port="0" to-layer="2404" to-port="1"/>
		<edge from-layer="2404" from-port="2" to-layer="2405" to-port="0"/>
		<edge from-layer="2405" from-port="1" to-layer="2407" to-port="0"/>
		<edge from-layer="2406" from-port="0" to-layer="2407" to-port="1"/>
		<edge from-layer="2407" from-port="2" to-layer="2409" to-port="0"/>
		<edge from-layer="2408" from-port="0" to-layer="2409" to-port="1"/>
		<edge from-layer="2409" from-port="2" to-layer="2411" to-port="0"/>
		<edge from-layer="2410" from-port="0" to-layer="2411" to-port="1"/>
		<edge from-layer="2411" from-port="2" to-layer="2412" to-port="0"/>
		<edge from-layer="2412" from-port="1" to-layer="2414" to-port="0"/>
		<edge from-layer="2413" from-port="0" to-layer="2414" to-port="1"/>
		<edge from-layer="2414" from-port="2" to-layer="2416" to-port="0"/>
		<edge from-layer="2415" from-port="0" to-layer="2416" to-port="1"/>
		<edge from-layer="2416" from-port="2" to-layer="2418" to-port="0"/>
		<edge from-layer="2417" from-port="0" to-layer="2418" to-port="1"/>
		<edge from-layer="2418" from-port="2" to-layer="2420" to-port="0"/>
		<edge from-layer="2419" from-port="0" to-layer="2420" to-port="1"/>
		<edge from-layer="2420" from-port="2" to-layer="2422" to-port="0"/>
		<edge from-layer="2421" from-port="0" to-layer="2422" to-port="1"/>
		<edge from-layer="2422" from-port="2" to-layer="2424" to-port="0"/>
		<edge from-layer="2423" from-port="0" to-layer="2424" to-port="1"/>
		<edge from-layer="2424" from-port="2" to-layer="2545" to-port="1"/>
		<edge from-layer="2425" from-port="0" to-layer="2426" to-port="1"/>
		<edge from-layer="2426" from-port="2" to-layer="2428" to-port="0"/>
		<edge from-layer="2427" from-port="0" to-layer="2428" to-port="1"/>
		<edge from-layer="2428" from-port="2" to-layer="2430" to-port="0"/>
		<edge from-layer="2429" from-port="0" to-layer="2430" to-port="1"/>
		<edge from-layer="2430" from-port="2" to-layer="2431" to-port="0"/>
		<edge from-layer="2431" from-port="1" to-layer="2433" to-port="0"/>
		<edge from-layer="2432" from-port="0" to-layer="2433" to-port="1"/>
		<edge from-layer="2433" from-port="2" to-layer="2435" to-port="0"/>
		<edge from-layer="2434" from-port="0" to-layer="2435" to-port="1"/>
		<edge from-layer="2435" from-port="2" to-layer="2437" to-port="0"/>
		<edge from-layer="2436" from-port="0" to-layer="2437" to-port="1"/>
		<edge from-layer="2437" from-port="2" to-layer="2438" to-port="0"/>
		<edge from-layer="2438" from-port="1" to-layer="2440" to-port="0"/>
		<edge from-layer="2439" from-port="0" to-layer="2440" to-port="1"/>
		<edge from-layer="2440" from-port="2" to-layer="2442" to-port="0"/>
		<edge from-layer="2441" from-port="0" to-layer="2442" to-port="1"/>
		<edge from-layer="2442" from-port="2" to-layer="2444" to-port="0"/>
		<edge from-layer="2443" from-port="0" to-layer="2444" to-port="1"/>
		<edge from-layer="2444" from-port="2" to-layer="2445" to-port="0"/>
		<edge from-layer="2445" from-port="1" to-layer="2447" to-port="0"/>
		<edge from-layer="2446" from-port="0" to-layer="2447" to-port="1"/>
		<edge from-layer="2447" from-port="2" to-layer="2449" to-port="0"/>
		<edge from-layer="2448" from-port="0" to-layer="2449" to-port="1"/>
		<edge from-layer="2449" from-port="2" to-layer="2451" to-port="0"/>
		<edge from-layer="2450" from-port="0" to-layer="2451" to-port="1"/>
		<edge from-layer="2451" from-port="2" to-layer="2452" to-port="0"/>
		<edge from-layer="2452" from-port="1" to-layer="2454" to-port="0"/>
		<edge from-layer="2453" from-port="0" to-layer="2454" to-port="1"/>
		<edge from-layer="2454" from-port="2" to-layer="2456" to-port="0"/>
		<edge from-layer="2455" from-port="0" to-layer="2456" to-port="1"/>
		<edge from-layer="2456" from-port="2" to-layer="2458" to-port="0"/>
		<edge from-layer="2457" from-port="0" to-layer="2458" to-port="1"/>
		<edge from-layer="2458" from-port="2" to-layer="2460" to-port="0"/>
		<edge from-layer="2459" from-port="0" to-layer="2460" to-port="1"/>
		<edge from-layer="2460" from-port="2" to-layer="2462" to-port="0"/>
		<edge from-layer="2461" from-port="0" to-layer="2462" to-port="1"/>
		<edge from-layer="2462" from-port="2" to-layer="2464" to-port="0"/>
		<edge from-layer="2463" from-port="0" to-layer="2464" to-port="1"/>
		<edge from-layer="2464" from-port="2" to-layer="2545" to-port="2"/>
		<edge from-layer="2465" from-port="0" to-layer="2466" to-port="1"/>
		<edge from-layer="2466" from-port="2" to-layer="2468" to-port="0"/>
		<edge from-layer="2467" from-port="0" to-layer="2468" to-port="1"/>
		<edge from-layer="2468" from-port="2" to-layer="2470" to-port="0"/>
		<edge from-layer="2469" from-port="0" to-layer="2470" to-port="1"/>
		<edge from-layer="2470" from-port="2" to-layer="2471" to-port="0"/>
		<edge from-layer="2471" from-port="1" to-layer="2473" to-port="0"/>
		<edge from-layer="2472" from-port="0" to-layer="2473" to-port="1"/>
		<edge from-layer="2473" from-port="2" to-layer="2475" to-port="0"/>
		<edge from-layer="2474" from-port="0" to-layer="2475" to-port="1"/>
		<edge from-layer="2475" from-port="2" to-layer="2477" to-port="0"/>
		<edge from-layer="2476" from-port="0" to-layer="2477" to-port="1"/>
		<edge from-layer="2477" from-port="2" to-layer="2478" to-port="0"/>
		<edge from-layer="2478" from-port="1" to-layer="2480" to-port="0"/>
		<edge from-layer="2479" from-port="0" to-layer="2480" to-port="1"/>
		<edge from-layer="2480" from-port="2" to-layer="2482" to-port="0"/>
		<edge from-layer="2481" from-port="0" to-layer="2482" to-port="1"/>
		<edge from-layer="2482" from-port="2" to-layer="2484" to-port="0"/>
		<edge from-layer="2483" from-port="0" to-layer="2484" to-port="1"/>
		<edge from-layer="2484" from-port="2" to-layer="2485" to-port="0"/>
		<edge from-layer="2485" from-port="1" to-layer="2487" to-port="0"/>
		<edge from-layer="2486" from-port="0" to-layer="2487" to-port="1"/>
		<edge from-layer="2487" from-port="2" to-layer="2489" to-port="0"/>
		<edge from-layer="2488" from-port="0" to-layer="2489" to-port="1"/>
		<edge from-layer="2489" from-port="2" to-layer="2491" to-port="0"/>
		<edge from-layer="2490" from-port="0" to-layer="2491" to-port="1"/>
		<edge from-layer="2491" from-port="2" to-layer="2492" to-port="0"/>
		<edge from-layer="2492" from-port="1" to-layer="2494" to-port="0"/>
		<edge from-layer="2493" from-port="0" to-layer="2494" to-port="1"/>
		<edge from-layer="2494" from-port="2" to-layer="2496" to-port="0"/>
		<edge from-layer="2495" from-port="0" to-layer="2496" to-port="1"/>
		<edge from-layer="2496" from-port="2" to-layer="2498" to-port="0"/>
		<edge from-layer="2497" from-port="0" to-layer="2498" to-port="1"/>
		<edge from-layer="2498" from-port="2" to-layer="2500" to-port="0"/>
		<edge from-layer="2499" from-port="0" to-layer="2500" to-port="1"/>
		<edge from-layer="2500" from-port="2" to-layer="2502" to-port="0"/>
		<edge from-layer="2501" from-port="0" to-layer="2502" to-port="1"/>
		<edge from-layer="2502" from-port="2" to-layer="2504" to-port="0"/>
		<edge from-layer="2503" from-port="0" to-layer="2504" to-port="1"/>
		<edge from-layer="2504" from-port="2" to-layer="2545" to-port="3"/>
		<edge from-layer="2505" from-port="0" to-layer="2506" to-port="1"/>
		<edge from-layer="2506" from-port="2" to-layer="2508" to-port="0"/>
		<edge from-layer="2507" from-port="0" to-layer="2508" to-port="1"/>
		<edge from-layer="2508" from-port="2" to-layer="2510" to-port="0"/>
		<edge from-layer="2509" from-port="0" to-layer="2510" to-port="1"/>
		<edge from-layer="2510" from-port="2" to-layer="2511" to-port="0"/>
		<edge from-layer="2511" from-port="1" to-layer="2513" to-port="0"/>
		<edge from-layer="2512" from-port="0" to-layer="2513" to-port="1"/>
		<edge from-layer="2513" from-port="2" to-layer="2515" to-port="0"/>
		<edge from-layer="2514" from-port="0" to-layer="2515" to-port="1"/>
		<edge from-layer="2515" from-port="2" to-layer="2517" to-port="0"/>
		<edge from-layer="2516" from-port="0" to-layer="2517" to-port="1"/>
		<edge from-layer="2517" from-port="2" to-layer="2518" to-port="0"/>
		<edge from-layer="2518" from-port="1" to-layer="2520" to-port="0"/>
		<edge from-layer="2519" from-port="0" to-layer="2520" to-port="1"/>
		<edge from-layer="2520" from-port="2" to-layer="2522" to-port="0"/>
		<edge from-layer="2521" from-port="0" to-layer="2522" to-port="1"/>
		<edge from-layer="2522" from-port="2" to-layer="2524" to-port="0"/>
		<edge from-layer="2523" from-port="0" to-layer="2524" to-port="1"/>
		<edge from-layer="2524" from-port="2" to-layer="2525" to-port="0"/>
		<edge from-layer="2525" from-port="1" to-layer="2527" to-port="0"/>
		<edge from-layer="2526" from-port="0" to-layer="2527" to-port="1"/>
		<edge from-layer="2527" from-port="2" to-layer="2529" to-port="0"/>
		<edge from-layer="2528" from-port="0" to-layer="2529" to-port="1"/>
		<edge from-layer="2529" from-port="2" to-layer="2531" to-port="0"/>
		<edge from-layer="2530" from-port="0" to-layer="2531" to-port="1"/>
		<edge from-layer="2531" from-port="2" to-layer="2532" to-port="0"/>
		<edge from-layer="2532" from-port="1" to-layer="2534" to-port="0"/>
		<edge from-layer="2533" from-port="0" to-layer="2534" to-port="1"/>
		<edge from-layer="2534" from-port="2" to-layer="2536" to-port="0"/>
		<edge from-layer="2535" from-port="0" to-layer="2536" to-port="1"/>
		<edge from-layer="2536" from-port="2" to-layer="2538" to-port="0"/>
		<edge from-layer="2537" from-port="0" to-layer="2538" to-port="1"/>
		<edge from-layer="2538" from-port="2" to-layer="2540" to-port="0"/>
		<edge from-layer="2539" from-port="0" to-layer="2540" to-port="1"/>
		<edge from-layer="2540" from-port="2" to-layer="2542" to-port="0"/>
		<edge from-layer="2541" from-port="0" to-layer="2542" to-port="1"/>
		<edge from-layer="2542" from-port="2" to-layer="2544" to-port="0"/>
		<edge from-layer="2543" from-port="0" to-layer="2544" to-port="1"/>
		<edge from-layer="2544" from-port="2" to-layer="2545" to-port="4"/>
		<edge from-layer="2545" from-port="5" to-layer="2546" to-port="0"/>
		<edge from-layer="2546" from-port="1" to-layer="2547" to-port="0"/>
		<edge from-layer="2548" from-port="0" to-layer="2549" to-port="1"/>
		<edge from-layer="2549" from-port="2" to-layer="2551" to-port="0"/>
		<edge from-layer="2550" from-port="0" to-layer="2551" to-port="1"/>
		<edge from-layer="2551" from-port="2" to-layer="2553" to-port="0"/>
		<edge from-layer="2552" from-port="0" to-layer="2553" to-port="1"/>
		<edge from-layer="2553" from-port="2" to-layer="2554" to-port="0"/>
		<edge from-layer="2554" from-port="1" to-layer="2556" to-port="0"/>
		<edge from-layer="2555" from-port="0" to-layer="2556" to-port="1"/>
		<edge from-layer="2556" from-port="2" to-layer="2558" to-port="0"/>
		<edge from-layer="2557" from-port="0" to-layer="2558" to-port="1"/>
		<edge from-layer="2558" from-port="2" to-layer="2560" to-port="0"/>
		<edge from-layer="2559" from-port="0" to-layer="2560" to-port="1"/>
		<edge from-layer="2560" from-port="2" to-layer="2561" to-port="0"/>
		<edge from-layer="2561" from-port="1" to-layer="2563" to-port="0"/>
		<edge from-layer="2562" from-port="0" to-layer="2563" to-port="1"/>
		<edge from-layer="2563" from-port="2" to-layer="2565" to-port="0"/>
		<edge from-layer="2564" from-port="0" to-layer="2565" to-port="1"/>
		<edge from-layer="2565" from-port="2" to-layer="2567" to-port="0"/>
		<edge from-layer="2566" from-port="0" to-layer="2567" to-port="1"/>
		<edge from-layer="2567" from-port="2" to-layer="2568" to-port="0"/>
		<edge from-layer="2568" from-port="1" to-layer="2570" to-port="0"/>
		<edge from-layer="2569" from-port="0" to-layer="2570" to-port="1"/>
		<edge from-layer="2570" from-port="2" to-layer="2572" to-port="0"/>
		<edge from-layer="2571" from-port="0" to-layer="2572" to-port="1"/>
		<edge from-layer="2572" from-port="2" to-layer="2574" to-port="0"/>
		<edge from-layer="2573" from-port="0" to-layer="2574" to-port="1"/>
		<edge from-layer="2574" from-port="2" to-layer="2575" to-port="0"/>
		<edge from-layer="2575" from-port="1" to-layer="2577" to-port="0"/>
		<edge from-layer="2576" from-port="0" to-layer="2577" to-port="1"/>
		<edge from-layer="2577" from-port="2" to-layer="2579" to-port="0"/>
		<edge from-layer="2578" from-port="0" to-layer="2579" to-port="1"/>
		<edge from-layer="2579" from-port="2" to-layer="2581" to-port="0"/>
		<edge from-layer="2580" from-port="0" to-layer="2581" to-port="1"/>
		<edge from-layer="2581" from-port="2" to-layer="2583" to-port="0"/>
		<edge from-layer="2582" from-port="0" to-layer="2583" to-port="1"/>
		<edge from-layer="2583" from-port="2" to-layer="2585" to-port="0"/>
		<edge from-layer="2584" from-port="0" to-layer="2585" to-port="1"/>
		<edge from-layer="2585" from-port="2" to-layer="2738" to-port="0"/>
		<edge from-layer="2586" from-port="0" to-layer="2587" to-port="1"/>
		<edge from-layer="2587" from-port="2" to-layer="2589" to-port="0"/>
		<edge from-layer="2588" from-port="0" to-layer="2589" to-port="1"/>
		<edge from-layer="2589" from-port="2" to-layer="2591" to-port="0"/>
		<edge from-layer="2590" from-port="0" to-layer="2591" to-port="1"/>
		<edge from-layer="2591" from-port="2" to-layer="2592" to-port="0"/>
		<edge from-layer="2592" from-port="1" to-layer="2594" to-port="0"/>
		<edge from-layer="2593" from-port="0" to-layer="2594" to-port="1"/>
		<edge from-layer="2594" from-port="2" to-layer="2596" to-port="0"/>
		<edge from-layer="2595" from-port="0" to-layer="2596" to-port="1"/>
		<edge from-layer="2596" from-port="2" to-layer="2598" to-port="0"/>
		<edge from-layer="2597" from-port="0" to-layer="2598" to-port="1"/>
		<edge from-layer="2598" from-port="2" to-layer="2599" to-port="0"/>
		<edge from-layer="2599" from-port="1" to-layer="2601" to-port="0"/>
		<edge from-layer="2600" from-port="0" to-layer="2601" to-port="1"/>
		<edge from-layer="2601" from-port="2" to-layer="2603" to-port="0"/>
		<edge from-layer="2602" from-port="0" to-layer="2603" to-port="1"/>
		<edge from-layer="2603" from-port="2" to-layer="2605" to-port="0"/>
		<edge from-layer="2604" from-port="0" to-layer="2605" to-port="1"/>
		<edge from-layer="2605" from-port="2" to-layer="2606" to-port="0"/>
		<edge from-layer="2606" from-port="1" to-layer="2608" to-port="0"/>
		<edge from-layer="2607" from-port="0" to-layer="2608" to-port="1"/>
		<edge from-layer="2608" from-port="2" to-layer="2610" to-port="0"/>
		<edge from-layer="2609" from-port="0" to-layer="2610" to-port="1"/>
		<edge from-layer="2610" from-port="2" to-layer="2612" to-port="0"/>
		<edge from-layer="2611" from-port="0" to-layer="2612" to-port="1"/>
		<edge from-layer="2612" from-port="2" to-layer="2613" to-port="0"/>
		<edge from-layer="2613" from-port="1" to-layer="2615" to-port="0"/>
		<edge from-layer="2614" from-port="0" to-layer="2615" to-port="1"/>
		<edge from-layer="2615" from-port="2" to-layer="2617" to-port="0"/>
		<edge from-layer="2616" from-port="0" to-layer="2617" to-port="1"/>
		<edge from-layer="2617" from-port="2" to-layer="2619" to-port="0"/>
		<edge from-layer="2618" from-port="0" to-layer="2619" to-port="1"/>
		<edge from-layer="2619" from-port="2" to-layer="2621" to-port="0"/>
		<edge from-layer="2620" from-port="0" to-layer="2621" to-port="1"/>
		<edge from-layer="2621" from-port="2" to-layer="2623" to-port="0"/>
		<edge from-layer="2622" from-port="0" to-layer="2623" to-port="1"/>
		<edge from-layer="2623" from-port="2" to-layer="2738" to-port="1"/>
		<edge from-layer="2624" from-port="0" to-layer="2625" to-port="1"/>
		<edge from-layer="2625" from-port="2" to-layer="2627" to-port="0"/>
		<edge from-layer="2626" from-port="0" to-layer="2627" to-port="1"/>
		<edge from-layer="2627" from-port="2" to-layer="2629" to-port="0"/>
		<edge from-layer="2628" from-port="0" to-layer="2629" to-port="1"/>
		<edge from-layer="2629" from-port="2" to-layer="2630" to-port="0"/>
		<edge from-layer="2630" from-port="1" to-layer="2632" to-port="0"/>
		<edge from-layer="2631" from-port="0" to-layer="2632" to-port="1"/>
		<edge from-layer="2632" from-port="2" to-layer="2634" to-port="0"/>
		<edge from-layer="2633" from-port="0" to-layer="2634" to-port="1"/>
		<edge from-layer="2634" from-port="2" to-layer="2636" to-port="0"/>
		<edge from-layer="2635" from-port="0" to-layer="2636" to-port="1"/>
		<edge from-layer="2636" from-port="2" to-layer="2637" to-port="0"/>
		<edge from-layer="2637" from-port="1" to-layer="2639" to-port="0"/>
		<edge from-layer="2638" from-port="0" to-layer="2639" to-port="1"/>
		<edge from-layer="2639" from-port="2" to-layer="2641" to-port="0"/>
		<edge from-layer="2640" from-port="0" to-layer="2641" to-port="1"/>
		<edge from-layer="2641" from-port="2" to-layer="2643" to-port="0"/>
		<edge from-layer="2642" from-port="0" to-layer="2643" to-port="1"/>
		<edge from-layer="2643" from-port="2" to-layer="2644" to-port="0"/>
		<edge from-layer="2644" from-port="1" to-layer="2646" to-port="0"/>
		<edge from-layer="2645" from-port="0" to-layer="2646" to-port="1"/>
		<edge from-layer="2646" from-port="2" to-layer="2648" to-port="0"/>
		<edge from-layer="2647" from-port="0" to-layer="2648" to-port="1"/>
		<edge from-layer="2648" from-port="2" to-layer="2650" to-port="0"/>
		<edge from-layer="2649" from-port="0" to-layer="2650" to-port="1"/>
		<edge from-layer="2650" from-port="2" to-layer="2651" to-port="0"/>
		<edge from-layer="2651" from-port="1" to-layer="2653" to-port="0"/>
		<edge from-layer="2652" from-port="0" to-layer="2653" to-port="1"/>
		<edge from-layer="2653" from-port="2" to-layer="2655" to-port="0"/>
		<edge from-layer="2654" from-port="0" to-layer="2655" to-port="1"/>
		<edge from-layer="2655" from-port="2" to-layer="2657" to-port="0"/>
		<edge from-layer="2656" from-port="0" to-layer="2657" to-port="1"/>
		<edge from-layer="2657" from-port="2" to-layer="2659" to-port="0"/>
		<edge from-layer="2658" from-port="0" to-layer="2659" to-port="1"/>
		<edge from-layer="2659" from-port="2" to-layer="2661" to-port="0"/>
		<edge from-layer="2660" from-port="0" to-layer="2661" to-port="1"/>
		<edge from-layer="2661" from-port="2" to-layer="2738" to-port="2"/>
		<edge from-layer="2662" from-port="0" to-layer="2663" to-port="1"/>
		<edge from-layer="2663" from-port="2" to-layer="2665" to-port="0"/>
		<edge from-layer="2664" from-port="0" to-layer="2665" to-port="1"/>
		<edge from-layer="2665" from-port="2" to-layer="2667" to-port="0"/>
		<edge from-layer="2666" from-port="0" to-layer="2667" to-port="1"/>
		<edge from-layer="2667" from-port="2" to-layer="2668" to-port="0"/>
		<edge from-layer="2668" from-port="1" to-layer="2670" to-port="0"/>
		<edge from-layer="2669" from-port="0" to-layer="2670" to-port="1"/>
		<edge from-layer="2670" from-port="2" to-layer="2672" to-port="0"/>
		<edge from-layer="2671" from-port="0" to-layer="2672" to-port="1"/>
		<edge from-layer="2672" from-port="2" to-layer="2674" to-port="0"/>
		<edge from-layer="2673" from-port="0" to-layer="2674" to-port="1"/>
		<edge from-layer="2674" from-port="2" to-layer="2675" to-port="0"/>
		<edge from-layer="2675" from-port="1" to-layer="2677" to-port="0"/>
		<edge from-layer="2676" from-port="0" to-layer="2677" to-port="1"/>
		<edge from-layer="2677" from-port="2" to-layer="2679" to-port="0"/>
		<edge from-layer="2678" from-port="0" to-layer="2679" to-port="1"/>
		<edge from-layer="2679" from-port="2" to-layer="2681" to-port="0"/>
		<edge from-layer="2680" from-port="0" to-layer="2681" to-port="1"/>
		<edge from-layer="2681" from-port="2" to-layer="2682" to-port="0"/>
		<edge from-layer="2682" from-port="1" to-layer="2684" to-port="0"/>
		<edge from-layer="2683" from-port="0" to-layer="2684" to-port="1"/>
		<edge from-layer="2684" from-port="2" to-layer="2686" to-port="0"/>
		<edge from-layer="2685" from-port="0" to-layer="2686" to-port="1"/>
		<edge from-layer="2686" from-port="2" to-layer="2688" to-port="0"/>
		<edge from-layer="2687" from-port="0" to-layer="2688" to-port="1"/>
		<edge from-layer="2688" from-port="2" to-layer="2689" to-port="0"/>
		<edge from-layer="2689" from-port="1" to-layer="2691" to-port="0"/>
		<edge from-layer="2690" from-port="0" to-layer="2691" to-port="1"/>
		<edge from-layer="2691" from-port="2" to-layer="2693" to-port="0"/>
		<edge from-layer="2692" from-port="0" to-layer="2693" to-port="1"/>
		<edge from-layer="2693" from-port="2" to-layer="2695" to-port="0"/>
		<edge from-layer="2694" from-port="0" to-layer="2695" to-port="1"/>
		<edge from-layer="2695" from-port="2" to-layer="2697" to-port="0"/>
		<edge from-layer="2696" from-port="0" to-layer="2697" to-port="1"/>
		<edge from-layer="2697" from-port="2" to-layer="2699" to-port="0"/>
		<edge from-layer="2698" from-port="0" to-layer="2699" to-port="1"/>
		<edge from-layer="2699" from-port="2" to-layer="2738" to-port="3"/>
		<edge from-layer="2700" from-port="0" to-layer="2701" to-port="1"/>
		<edge from-layer="2701" from-port="2" to-layer="2703" to-port="0"/>
		<edge from-layer="2702" from-port="0" to-layer="2703" to-port="1"/>
		<edge from-layer="2703" from-port="2" to-layer="2705" to-port="0"/>
		<edge from-layer="2704" from-port="0" to-layer="2705" to-port="1"/>
		<edge from-layer="2705" from-port="2" to-layer="2706" to-port="0"/>
		<edge from-layer="2706" from-port="1" to-layer="2708" to-port="0"/>
		<edge from-layer="2707" from-port="0" to-layer="2708" to-port="1"/>
		<edge from-layer="2708" from-port="2" to-layer="2710" to-port="0"/>
		<edge from-layer="2709" from-port="0" to-layer="2710" to-port="1"/>
		<edge from-layer="2710" from-port="2" to-layer="2712" to-port="0"/>
		<edge from-layer="2711" from-port="0" to-layer="2712" to-port="1"/>
		<edge from-layer="2712" from-port="2" to-layer="2713" to-port="0"/>
		<edge from-layer="2713" from-port="1" to-layer="2715" to-port="0"/>
		<edge from-layer="2714" from-port="0" to-layer="2715" to-port="1"/>
		<edge from-layer="2715" from-port="2" to-layer="2717" to-port="0"/>
		<edge from-layer="2716" from-port="0" to-layer="2717" to-port="1"/>
		<edge from-layer="2717" from-port="2" to-layer="2719" to-port="0"/>
		<edge from-layer="2718" from-port="0" to-layer="2719" to-port="1"/>
		<edge from-layer="2719" from-port="2" to-layer="2720" to-port="0"/>
		<edge from-layer="2720" from-port="1" to-layer="2722" to-port="0"/>
		<edge from-layer="2721" from-port="0" to-layer="2722" to-port="1"/>
		<edge from-layer="2722" from-port="2" to-layer="2724" to-port="0"/>
		<edge from-layer="2723" from-port="0" to-layer="2724" to-port="1"/>
		<edge from-layer="2724" from-port="2" to-layer="2726" to-port="0"/>
		<edge from-layer="2725" from-port="0" to-layer="2726" to-port="1"/>
		<edge from-layer="2726" from-port="2" to-layer="2727" to-port="0"/>
		<edge from-layer="2727" from-port="1" to-layer="2729" to-port="0"/>
		<edge from-layer="2728" from-port="0" to-layer="2729" to-port="1"/>
		<edge from-layer="2729" from-port="2" to-layer="2731" to-port="0"/>
		<edge from-layer="2730" from-port="0" to-layer="2731" to-port="1"/>
		<edge from-layer="2731" from-port="2" to-layer="2733" to-port="0"/>
		<edge from-layer="2732" from-port="0" to-layer="2733" to-port="1"/>
		<edge from-layer="2733" from-port="2" to-layer="2735" to-port="0"/>
		<edge from-layer="2734" from-port="0" to-layer="2735" to-port="1"/>
		<edge from-layer="2735" from-port="2" to-layer="2737" to-port="0"/>
		<edge from-layer="2736" from-port="0" to-layer="2737" to-port="1"/>
		<edge from-layer="2737" from-port="2" to-layer="2738" to-port="4"/>
		<edge from-layer="2738" from-port="5" to-layer="2739" to-port="0"/>
	</edges>
	<meta_data>
		<MO_version value="2021.4.0-3839-cd81789d294-releases/2021/4"/>
		<cli_parameters>
			<caffe_parser_path value="DIR"/>
			<data_type value="FP32"/>
			<disable_nhwc_to_nchw value="False"/>
			<disable_omitting_optional value="False"/>
			<disable_resnet_optimization value="False"/>
			<disable_weights_compression value="False"/>
			<enable_concat_optimization value="False"/>
			<enable_flattening_nested_params value="False"/>
			<enable_ssd_gluoncv value="False"/>
			<extensions value="DIR"/>
			<framework value="onnx"/>
			<freeze_placeholder_with_value value="{}"/>
			<generate_deprecated_IR_V7 value="False"/>
			<input_model value="DIR/hybridnets_512x640.onnx"/>
			<input_model_is_text value="False"/>
			<k value="DIR/CustomLayersMapping.xml"/>
			<keep_shape_ops value="True"/>
			<legacy_ir_generation value="False"/>
			<legacy_mxnet_model value="False"/>
			<log_level value="ERROR"/>
			<mean_scale_values value="{}"/>
			<mean_values value="()"/>
			<model_name value="hybridnets_512x640"/>
			<output_dir value="DIR"/>
			<placeholder_data_types value="{}"/>
			<progress value="False"/>
			<remove_memory value="False"/>
			<remove_output_softmax value="False"/>
			<reverse_input_channels value="False"/>
			<save_params_from_nd value="False"/>
			<scale_values value="()"/>
			<silent value="False"/>
			<static_shape value="False"/>
			<stream_output value="False"/>
			<transform value=""/>
			<unset unset_cli_parameters="batch, counts, disable_fusing, disable_gfusing, finegrain_fusing, input, input_checkpoint, input_meta_graph, input_proto, input_shape, input_symbol, mean_file, mean_file_offsets, move_to_preprocess, nd_prefix_name, output, placeholder_shapes, pretrained_model_name, saved_model_dir, saved_model_tags, scale, tensorboard_logdir, tensorflow_custom_layer_libraries, tensorflow_custom_operations_config_update, tensorflow_object_detection_api_pipeline_config, tensorflow_use_custom_operations_config, transformations_config"/>
		</cli_parameters>
	</meta_data>
</net>
